RL_Models_Weights/DDPG_Actor_Model_Trained_Weights/actor_model_ddpg_ep0.pth (torch, 15580 bytes, 8 tensors)

fc1.weight f4 [64, 10]
0.041288905 0.120529875 0.20893133 -0.2463713 0.020518789 0.22295144 0.083191626 -0.18468738
0.13610153 -0.31370756 0.09055952 0.17026119 0.16987374 0.25735742 0.28094965 -0.118177526
0.22607015 -0.16187155 0.33375296 -0.1886823 0.21828254 -0.22130762 0.07595566 0.0311858
-0.26678607 -0.094747454 -0.21024224 0.034716297 0.07102965 0.2969543 -0.07764322 0.036011614
-0.30904052 0.14220992 0.3196338 -0.18320467 0.2333638 -0.28108808 0.045210045 0.352067
-0.26711893 -0.14322914 -0.18339998 0.024652895 -0.02709945 0.123393476 -0.23722005 -0.12979202
0.17781037 0.12313947 0.13026357 -0.08480491 0.078561634 -0.25241166 -0.19470643 0.04795321
-0.10741566 0.10867838 0.163894 -0.33343482 -0.044035558 -0.08903304 -0.17304377 0.16298811
-0.052572787 -0.19457345 -0.2993343 0.003636921 0.1835873 0.033941735 -0.07898144 -0.20324145
0.15580055 0.28821665 -0.20581172 -0.14060749 0.052834105 0.030964777 0.061293375 -0.287792
0.16811779 0.12298103 -0.29394585 0.06568941 -0.16501176 -0.2892162 -0.31517738 -0.012375604
0.117218845 -0.08491597 0.19043678 0.15833977 -0.06298044 0.044826787 -0.2110616 0.10232895
0.37033936 0.078040846 -0.15083386 0.24533948 -0.26102883 0.24886082 0.07525144 0.06569003
0.2302078 0.30935884 -0.036162894 0.13143381 0.2577571 -0.108583994 -0.27865455 -0.022451637
-0.06639706 -0.046767782 0.014314489 0.103417344 -0.21460791 -0.19490877 -0.2469418 -0.28154993
-0.12774509 -0.107457966 0.24532278 0.22096817 -0.23164733 -0.15883379 -0.19733676 0.096524246
0.09518047 -0.011808731 0.25874656 0.20066926 0.18350628 -0.14220373 -0.1245159 0.25912946
0.17641023 -0.2273872 0.112668276 -0.12753177 0.0162346 0.0992219 -0.20152159 0.066307984
0.022659952 -0.30091393 0.13885124 -0.14813232 -0.051288817 -0.28156623 -0.10035293 -0.26968604
-0.20838808 -0.04149917 0.18742299 -0.1797692 -0.2631618 0.17638598 -0.12452194 0.23400919
-0.13756682 -0.08757008 -0.24785058 0.13852838 -0.19371626 -0.225055 -0.28906935 -0.21625882
-0.10569901 -0.19945145 0.36341703 0.30344826 0.21256739 -0.14315797 0.28131235 0.17165305
0.24234308 -0.17662038 0.3643657 0.13049304 -0.13947627 -0.2155469 0.27348664 -0.03307228
-0.27179947 0.017580582 -0.28978223 0.21836255 -0.07746024 0.13202477 0.004013178 -0.2593212
0.096817225 0.2784448 -0.19248453 0.2145914 -0.28578767 -0.114155225 -0.19975299 0.086661875
-0.229902 -0.06672782 -0.3152305 0.0979325 0.047366228 0.010725859 0.07857664 -0.06351548
-0.08717882 0.004778131 0.22275263 0.17917746 -0.09762949 -0.23105535 0.15141545 0.29363626
-0.08870307 0.07060585 0.10483876 0.0598841 0.1976977 -0.052340798 -0.0020672062 -0.03070875
0.15203637 -0.11116006 0.03320328 -0.15044814 0.28558314 0.13869159 -0.08286418 0.0838391
-0.059130684 0.0034075512 0.29308793 -0.2405094 0.23000145 0.15157491 0.08247078 -0.10774985
-0.029956969 0.314717 -0.10471635 0.025445148 0.35895112 -0.16333039 -0.031882733 0.2893184
0.2734299 0.2390641 0.14728057 -0.24461408 -0.11820403 -0.03995823 -0.27861422 -0.08332228
00000000: 8e1e 293d 5ed8 f63d 18f2 553e c248 7cbe
00000010: 0517 a83c 624d 643e 5f60 aa3d b01e 3dbe
00000020: 335e 0b3e 479e a0be 4577 b93d f358 2e3e
00000030: 62f3 2d3e 5ac4 833e a2d8 8f3e 0f07 f2bd
00000040: ef7e 673e a8c1 25be abe1 aa3e ef35 41be
00000050: 7585 5f3e 779e 62be a48e 9b3d 5d79 ff3c
00000060: 2f98 88be f40a c2bd be49 57be ad32 0e3d
00000070: fe77 913d 650a 983e 6903 9fbd ea80 133d
00000080: 8f3a 9ebe 7a9f 113e 0ba7 a33e 019a 3bbe
00000090: ecf6 6e3e c7ea 8fbe 2b2e 393d 2042 b43e
000000a0: d0c3 88be a9aa 12be 34cd 3bbe def4 c93c
000000b0: aaff ddbc b8b5 fc3d d0e9 72be 33e8 04be
000000c0: ec13 363e 8c30 fc3d d063 053e 32ae adbd
000000d0: ece4 a03d 1a3c 81be 1f61 47be 966a 443d
000000e0: befc dbbd c592 de3d d4d3 273e f8b7 aabe
000000f0: a15e 34bd f456 b6bd 6332 31be 5be6 263e
00000100: 9056 57bd 433e 47be 5842 99be 6959 6e3b
00000110: 4ffe 3b3e 7d06 0b3d 05c1 a1bd 871e 50be
00000120: 2e8a 1f3e 2291 933e 4fc0 52be 69fb 0fbe
00000130: 9368 583d d8a9 fd3c c30e 7b3d 7959 93be
00000140: 1227 2c3e 7add fb3d 1280 96be 2b88 863d
00000150: d8f8 28be 2514 94be ee5e a1be 0cc3 4abc
00000160: 6f10 f03d 6de8 adbd dc01 433e d223 223e
00000170: e4fb 80bd 4b9c 373d 8820 58be d791 d13d
00000180: 1f9d bd3e e1d3 9f3d 3174 1abe 463a 7b3e
00000190: 92a5 85be 5fd5 7e3e 6d1d 9a3d 7f88 863d
000001a0: 98bb 6b3e 4864 9e3e 8b1f 14bd 9696 063e
000001b0: bdf8 833e 4961 debd cfab 8ebe 7fec b7bc
000001c0: 2ffb 87bd 938f 3fbd 5287 6a3c 79cc d33d
000001d0: 2dc2 5bbe 2a96 47be 50de 7cbe 5027 90be
000001e0: 9ccf 02be ec12 dcbd e535 7b3e 7b45 623e
000001f0: f534 6dbe 53a5 22be a612 4abe 81ae c53d
00000200: faed c23d 6879 41bc 6e7a 843e 3e7c 4d3e
00000210: 12e9 3b3e db9d 11be 3102 ffbd 9eac 843e
00000220: e2a4 343e 31d8 68be a0be e63d b097 02be
00000230: 6dfe 843c da34 cb3d ad5b 4ebe 7bcc 873d
00000240: 5da1 b93c 6411 9abe 052f 0e3e 00b0 17be
00000250: 3914 52bd 7329 90be d685 cdbd 4a14 8abe
00000260: af63 55be 09fb 29bd d0eb 3f3e 6b15 38be
00000270: 25bd 86be 879e 343e 5c05 ffbd 1ba0 6f3e
00000280: 51de 0cbe f157 b3bd 8bcc 7dbe 62da 0d3e
00000290: 8e5d 46be d174 66be e600 94be f472 5dbe
000002a0: b978 d8bd 003d 4cbe cc11 ba3e 925d 9b3e
000002b0: 44ab 593e 0198 12be 2c08 903e d1c5 2f3e
000002c0: c928 783e f9db 34be 248e ba3e f89f 053e
000002d0: ded2 0ebe 54b8 5cbe 7106 8c3e cd76 07bd
000002e0: 4d29 8bbe 2705 903c 565e 94be 6f9a 5f3e
000002f0: 79a3 9ebd 8031 073e fa80 833b c0c5 84be
00000300: 1c48 c63d 5190 8e3e aa1a 45be d9bd 5b3e
00000310: c352 92be 37ca e9bd 0c8c 4cbe c87b b13d
00000320: 6e6b 6bbe 98a8 88bd e465 a1be d690 c83d
00000330: 1703 423d 83bb 2f3c caec a03d 6714 82bd
00000340: cf8a b2bd de91 9c3b 4419 643e 4c7a 373e
00000350: f8f1 c7bd c699 6cbe a70c 1b3e 7e57 963e
00000360: f5a9 b5bd cd99 903d b4b5 d63d 0849 753d
00000370: 4471 4a3e 4e63 56bd f779 07bb eb90 fbbc
00000380: 6caf 1b3e e3a7 e3bd 2a00 083d 140f 1abe
00000390: f437 923e 2b05 0e3e b2b4 a9bd d6b3 ab3d
000003a0: 0433 72bd 3951 5f3b 9f0f 963e 1948 76be
000003b0: 8085 6b3e 7436 1b3e 71e6 a83d f4ab dcbd
000003c0: 5168 f5bc 9622 a13e 8775 d6bd 5872 d03c
000003d0: 71c8 b73e 1540 27be 7897 02bd 8b21 943e
000003e0: 01ff 8b3e 38cd 743e b8d0 163e 1d7c 7abe
000003f0: f414 f2bd 3eab 23bd 86a6 8ebe dfa4 aabd

fc1.bias f4 [64]
-0.022941066 0.29087663 0.14855495 0.17180702 -0.1601559 0.2133619 0.098112546 -0.072340116
0.0759191 0.1714237 -0.09484054 -0.00042156875 0.11047956 0.24657822 0.056239262 -0.04695212
-0.30664685 -0.00031243346 0.048823565 -0.22353205 -0.2466086 -0.2836424 -0.079833254 0.19191863
0.0012966811 0.16158429 -0.07111091 -0.027558623 -0.27681664 -0.2785578 0.12640919 0.13616124
0.13022853 -0.0066850483 -0.3025216 0.15974061 0.086386465 -0.15723376 -0.25086915 -0.18963628
-0.3152684 -0.002039689 -0.24109073 0.17819186 0.07933243 0.21168688 -0.06461828 -0.1084661
-0.121600665 0.2890189 0.14561678 0.096573286 0.021890149 -0.06262134 -0.18468542 0.21922387
0.20994711 0.019890608 0.11552488 0.2420568 -0.09563022 0.0148849245 -0.14750446 -0.2477892
00000000: e7ee bbbc c8ed 943e ca1e 183e 2eee 2f3e
00000010: e9ff 23be 8b7b 5a3e 3bef c83d 0e27 94bd
00000020: 797b 9b3d b289 2f3e c23b c2bd 0006 ddb9
00000030: 1c43 e23d 007f 7c3e 245b 663d de50 40bd
00000040: d100 9dbe 1cce a3b9 38fb 473d 96e5 64be
00000050: f786 7cbe 9439 91be 9e7f a3bd 5186 443e
00000060: 66f5 a93a 5a76 253e 99a2 91bd 9fc2 e1bc
00000070: e9ba 8dbe 219f 8ebe 6971 013e da6d 0b3e
00000080: a15a 053e 400e dbbb 1ce4 9abe 0b93 233e
00000090: 63eb b03d e301 21be ec71 80be 0330 42be
000000a0: dc6a a1be 4eac 05bb 7de0 76be ed77 363e
000000b0: 0b79 a23d 72c4 583e 9756 84bd 7a23 debd
000000c0: c509 f9bd 49fa 933e 911c 153e 37c8 c53d
000000d0: f852 b33c 9e3f 80bd 2d1e 3dbe 397c 603e
000000e0: 60fc 563e a1f1 a23c 4f98 ec3d bddd 773e
000000f0: c7d9 c3bd e6df 733c 690b 17be 74bc 7dbe

fc2.weight f4 [32, 64]
0.12241849 0.023076087 -0.11930306 0.045065776 0.10971701 -0.04208602 0.026982918 -0.08408646
-0.025253445 -0.09905727 0.037222028 0.085312515 0.032367423 0.11328289 -0.1137591 0.11012405
0.114157945 -0.07509725 0.09732704 0.1052337 -0.0061597377 0.1154699 -0.09448153 -0.033342227
-0.0021788925 -0.013208061 -0.09827122 -0.04483655 -0.00047115982 0.111589134 -0.014204919 0.10918552
0.00015325844 -0.012978211 -0.042014644 0.09637502 -0.08928238 0.11952105 -0.09887405 0.116573006
-0.061882272 -0.0613707 -0.0837968 -0.12475242 -0.013336077 -0.040984377 0.115293175 -0.008888885
-0.00527139 0.051953003 -0.10986674 0.09554438 0.042777717 0.106889755 -0.02303262 0.050293103
0.0002799034 -0.09870152 -0.12351008 0.020145103 -0.11797084 -0.08005978 0.013144702 0.0838497
-0.062130935 0.043517265 -0.099058315 -0.0848844 0.048255906 -0.10093867 0.061277773 -0.075068295
0.03912706 0.0062391073 -0.05432931 -0.062025905 -0.11252929 0.0040634917 0.10667761 0.0062201023
0.00067073107 -0.046012778 0.121159524 -0.02235502 0.052538827 -0.07802272 -0.10218226 -0.015506904
0.03860351 -0.0954703 -0.076829135 -0.1140319 -0.08269219 -0.06026363 0.041115463 -0.0769448
-0.020727636 -0.09065917 -0.025764227 -0.08249193 0.024566164 -0.0042441636 -0.07246214 -0.0040240437
-0.05812709 -0.08283771 -0.07219298 -0.15662374 -0.054505393 -0.1413882 -0.16393292 0.029738784
0.024236172 -0.10091258 0.030923665 -0.015179438 -0.016523583 0.017229378 0.038643777 -0.16880645
-0.07410296 0.06566085 0.02443237 0.045245245 -0.042732596 0.045482233 -0.029246762 0.03832391
-0.05258611 0.009633124 0.10975386 0.0010116398 -0.08825293 0.013886899 -0.004195571 -6.7546964e-05
0.10128079 -0.08512519 -0.09046289 -0.11136058 0.019158542 -0.07733895 -0.040602297 0.0019474328
0.10526687 0.109974116 0.12260361 0.019470349 -0.0024165064 -0.07587573 -0.052988768 -0.0009071231
-0.013463989 -0.08498329 0.06640248 0.105660334 0.08528018 -0.096438766 -0.017730877 0.08193642
-0.03631997 0.11548978 0.07095392 0.107017934 -0.11726613 0.06471968 0.09361695 0.034745723
0.027582273 -0.0975903 -0.1034988 0.008927673 -0.02932392 -0.058961213 -0.11849442 0.041116253
0.034814984 0.08702406 -0.05375284 -0.005698636 0.023642093 0.08064529 -0.047432333 0.06250547
-0.048426732 0.08663705 0.028809115 0.06975788 0.10747564 -0.09373082 -0.040209055 -0.093105316
0.048197016 0.027435645 -0.10539836 -0.0885842 0.042416856 0.113223776 0.11384407 0.07174975
-0.05937858 -0.07016592 -0.09633146 0.107986316 0.020948261 -0.0891612 -0.060830623 0.0068151653
-0.05409433 0.0045002103 0.12246111 -0.070913255 0.094442844 0.061605424 -0.017545551 0.0741283
0.12392032 0.024686396 0.077596456 0.042258143 0.12226692 -0.021066561 -0.0399708 0.002305597
-0.044218242 0.12399882 -0.12407817 -0.055417 -0.011917427 0.078585625 0.00053203106 -0.024439916
-0.117871374 0.062480345 0.004409641 0.032295346 -0.021415412 -0.08585477 0.020720556 0.01564245
0.07001904 -0.12241162 -0.09883785 0.06705801 0.03919725 -0.017605871 -0.06347032 0.052173182
0.11691888 -0.06326532 0.0014953464 0.10035771 -0.044375032 0.08412118 -0.08661528 0.0012277812
00000000: 8cb6 fa3d 100a bd3c 2a55 f4bd e496 383d
00000010: 50b3 e03d 6462 2cbd 480b dd3c 8635 acbd
00000020: 50e0 cebc 8ade cabd 2076 183d 54b8 ae3d
00000030: b493 043d dc00 e83d 88fa e8bd b888 e13d
00000040: a4cb e93d 96cc 99bd 6653 c73d c484 d73d
00000050: a0d7 c9bb 7c7b ec3d 887f c1bd dc91 08bd
00000060: c0cb 0ebb a066 58bc 6c42 c9bd 88a6 37bd
00000070: 0006 f7b9 d888 e43d c0bb 68bc a89c df3d
00000080: 00b4 2039 90a2 54bc 8c17 2cbd 4460 c53d
00000090: aed9 b6bd 74c7 f43d 7a7e cabd d4bd ee3d
000000a0: 4478 7dbd d85f 7bbd a89d abbd 327e ffbd
000000b0: 907f 5abc 3cdf 27bd d41e ec3d b0a2 11bc
000000c0: a0bb acbb accc 543d d001 e1bd c6ac c33d
000000d0: b037 2f3d 04e9 da3d e8ae bcbc 2400 4e3d
000000e0: 00c0 9239 0624 cabd daf2 fcbd 5807 a53c
000000f0: b29a f1bd 62f6 a3bd e05c 573c 64b9 ab3d
00000100: 027d 7ebd 293f 323d 16df cabd dfd7 adbd
00000110: fca7 453d efb8 cebd 67fe 7a3d 68bd 99bd
00000120: b243 203d 6d71 cc3b 6988 5ebd e00e 7ebd
00000130: c275 e6bd 0a27 853b ca79 da3d 00d2 cb3b
00000140: 00d4 2f3a e577 3cbd 7c22 f83d e021 b7bc
00000150: f432 573d 60ca 9fbd ef44 d1bd ab10 7ebc
00000160: b71e 1e3d ef85 c3bd 9858 9dbd 8f89 e9bd
00000170: 865a a9bd ffd6 76bd b068 283d 3c95 9dbd
00000180: 01cd a9bc 84ab b9bd 800f d3bc 87f1 a8bd
00000190: fb3e c93c a012 8bbb 0867 94bd 20dc 83bb
000001a0: ac16 6ebd d1a6 a9bd ead9 93bd f961 20be
000001b0: 0c41 5fbd 11c8 10be 08de 27be c09e f33c
000001c0: f08a c63c 41ab cebd a053 fd3c 2db3 78bc
000001d0: 775c 87bc a024 8d3c f048 1e3d 99db 2cbe
000001e0: 4bc3 97bd 3279 863d 6526 c83c 1453 393d
000001f0: 6008 2fbd 944b 3a3d e896 efbc 88f9 1c3d
00000200: 8864 57bd 40d4 1d3c a2c6 e03d 0099 843a
00000210: f4bd b4bd e085 633c 007b 89bb 00a8 8db8
00000220: 4e6c cf3d 1e56 aebd 9c44 b9bd 0411 e4bd
00000230: 60f2 9c3c e263 9ebd 984e 26bd 0041 ff3a
00000240: 2896 d73d 1c3a e13d 9a17 fb3d 4880 9f3c
00000250: 405e 1ebb bc64 9bbd c00a 59bd 00cc 6dba
00000260: 1098 5cbc b80b aebd 06fe 873d 7264 d83d
00000270: 60a7 ae3d b081 c5bd 5840 91bc 48ce a73d
00000280: 40c4 14bd e885 ec3d 4a50 913d 382c db3d
00000290: 3a29 f0bd c08b 843d 3eba bf3d 8851 0e3d
000002a0: 38f4 e13c 6cdd c7bd 2ef7 d3bd 6045 123c
000002b0: b838 f0bc 5081 71bd 34ad f2bd 8469 283d
000002c0: 289a 0e3d ac39 b23d f02b 5cbd a0bb babb
000002d0: 10ad c13c 5c29 a53d 6848 42bd de02 803d
000002e0: 1c5b 46bd c46e b13d 1801 ec3c 38dd 8e3d
000002f0: 301c dc3d f2f5 bfbd 40b2 24bd 00ae bebd
00000300: 3c6a 453d b8c0 e03c 18db d7bd a26b b5bd
00000310: 4cbd 2d3d dee1 e73d 1427 e93d 88f1 923d
00000320: f436 73bd 26b3 8fbd 6e49 c5bd ee27 dd3d
00000330: b09b ab3c 269a b6bd 8829 79bd c051 df3b
00000340: 0492 5dbd 8076 933b e4cc fa3d f83a 91bd
00000350: 406b c13d f855 7c3d b0bb 8fbc 94d0 973d
00000360: f0c9 fd3d 203b ca3c e4ea 9e3d e016 2d3d
00000370: 1467 fa3d c893 acbc 6cb8 23bd 8019 173b
00000380: 301e 35bd 18f3 fd3d b21c febd f0fc 62bd
00000390: 5041 43bc 80f1 a03d 0078 0b3a 3836 c8bc
000003a0: 8c66 f1bd 64eb 7f3d c07e 903b 2048 043d
000003b0: 606f afbc a0d4 afbd 28be a93c 9824 803c
000003c0: 2466 8f3d f2b2 fabd 806b cabd b655 893d
000003d0: 4c8d 203d 303a 90bc bafc 81bd 8cb3 553d
000003e0: 2a73 ef3d 4091 81bd 80ff c33a 5888 cd3d
000003f0: 98c2 35bd ba47 ac3d 5a63 b1bd 80ed a03a

fc2.bias f4 [32]
0.12265088 0.004847877 0.033786908 0.042403445 0.068749785 0.09956193 0.029143509 -0.16596282
0.07013567 0.015321986 -0.054929838 0.056295767 0.09381435 -0.05580637 -0.11535314 -0.098178625
0.082366556 0.014492944 -0.006772697 -0.10997854 -0.07796273 -0.05832061 0.054208584 0.15144528
0.07093443 0.02447331 0.050181523 -0.00020942815 -0.018690098 0.0069901496 -0.049944073 -0.08647993
00000000: 6230 fb3d f1da 9e3b 2464 0a3d 3caf 2d3d
00000010: b0cc 8c3d 20e7 cb3d 5ebe ee3c 28f2 29be
00000020: 4aa3 8f3d 1109 7b3c 1cfe 60bd 6496 663d
00000030: bd21 c03d 3895 64bd 443e ecbd e011 c9bd
00000040: ccaf a83d d073 6d3c 80ed ddbb 6e3c e1bd
00000050: ecaa 9fbd 98e1 6ebd d209 5e3d 7914 1b3e
00000060: 1246 913d 407c c83c 248b 4d3d f199 5bb9
00000070: fa1b 99bc a00d e53b 2892 4cbd 641c b1bd

fc3.weight f4 [8, 32]
0.054357696 -0.17585096 0.056412227 0.07452328 -0.14776827 -0.16434997 0.08698096 0.109462515
0.08904773 -0.23068273 -0.042519405 0.092771046 -0.22952345 0.11435291 -0.112229705 -0.030883735
-0.10338332 0.14536998 0.17104901 -0.033223033 0.06104425 0.028530529 0.046649817 0.09160526
-0.05131596 -0.16156602 0.06372363 -0.054815244 0.09365737 0.098864324 -0.13924536 -0.09590799
-0.13297196 -0.13937965 0.13194467 -0.08440825 0.030480511 -0.13365081 0.027788196 -0.21485965
-0.14005096 -0.21870075 0.09392604 0.07653298 -0.01608846 -0.074994855 -0.137447 0.09734984
-0.10260492 0.09613894 0.0861451 0.024514671 0.023017364 0.033372276 0.057230826 0.039104477
0.014647821 0.009843755 -0.10833841 -0.028323356 0.07097963 0.057699267 -0.12325335 -0.10590569
0.047917426 0.009638298 0.07617328 0.068645306 0.17982742 -0.033906635 -0.07445732 -0.05089273
0.03926078 -0.03870013 0.102371514 -0.13775493 0.17138384 0.1625581 -0.082249865 0.11522712
0.15674262 0.022245485 -0.046784077 0.025595823 -0.01572324 -0.0035315475 -0.11725823 0.2222526
-0.14644 -0.0322369 -0.16797392 0.09385007 0.14930558 0.17609322 -0.016156465 0.1579548
-0.054799035 -0.007731 -0.03673237 -0.17016472 -0.051283456 -0.15904853 -0.064266056 0.011383505
-0.15132418 -0.12077877 0.05103739 -0.054643095 0.045061458 -0.09434597 0.18662639 -0.058596402
0.019039875 0.022369187 0.064812325 -0.096313596 -0.06680366 -0.064726934 -0.08687222 0.19223295
-0.060054705 0.07288286 0.024478026 0.098119214 -0.035778265 -0.07268323 -0.10123977 -0.16167535
0.11479931 0.086855054 -0.15157118 -0.17026962 0.003707172 0.1466902 0.04030813 -0.09019568
0.1099696 -0.03098655 -0.089916594 -0.13111389 0.07144307 -0.15309921 -0.06623614 0.121947415
0.088850304 -0.16534503 -0.082000926 -0.030066887 0.1418454 0.09091895 0.11446968 -0.096723706
0.025691686 0.08166194 -0.111736454 -0.11628925 -0.027136084 -0.027662514 -0.07268685 -0.11735128
-0.15600953 -0.0032740303 0.058977645 -0.031948954 -0.09187524 0.10920046 0.090919666 0.14808276
-0.017719777 0.09931108 0.030055255 -0.026201157 0.088936254 0.06780389 -0.08996793 0.08238246
0.08324588 -0.052067034 0.118833505 -0.09927376 -0.07139722 -0.022993993 0.011435114 -0.10646776
-0.10145815 0.05077007 -0.057957564 0.105379194 0.16845474 -0.13456519 -0.03515068 -0.10822967
0.07531119 0.06729478 0.029717637 -0.048071284 0.05985084 -0.051535018 0.09661305 -0.01034193
-0.031300418 0.06008619 -0.0779177 -0.0399295 0.044669125 0.061980713 -0.0503427 0.11514348
-0.120871894 -0.13788812 -0.057113234 0.07685611 0.012748094 0.079849266 0.14660329 0.0066242833
-0.07668328 -0.034441665 -0.034941338 -0.053813286 0.10596164 0.02754678 -0.050499614 0.07950322
0.1038688 0.0702157 0.085091725 -0.00012367993 0.050033744 -0.038760897 -0.03779483 0.05235045
-0.159833 -0.04602714 0.16815451 -0.013434371 -0.11965568 -0.1156068 -0.169484 0.09284885
0.14415877 -0.0698434 -0.026900057 0.11093335 -0.0656561 0.1160878 -0.009447912 0.09878905
0.16540712 -0.071565665 -0.095082976 -0.11180434 0.07129687 0.16940112 -0.063716866 -0.1095342
00000000: 2da6 5e3d 4612 34be 8210 673d a99f 983d
00000010: 9150 17be 5c4b 28be 1323 b23d e22d e03d
00000020: a85e b63d 1838 6cbe d428 2ebd bffe bd3d
00000030: 3208 6bbe dc31 ea3d b0d8 e5bd e3ff fcbc
00000040: a2ba d3bd dedb 143e 7927 2f3e e014 08bd
00000050: 8909 7a3d dbb8 e93c e113 3f3d 8a9b bb3d
00000060: af30 52bd 9071 25be 8981 823d f385 60bd
00000070: 6fcf bf3d 6179 ca3d 5696 0ebe 696b c4bd
00000080: cd29 08be 8ab9 0ebe 811c 073e 3cde acbd
00000090: 44b2 f93c c2db 08be 12a4 e33c 2b04 5cbe
000000a0: 8569 0fbe 17f3 5fbe 4c5c c03d 53bd 9c3d
000000b0: f2cb 83bc e796 99bd e8be 0cbe 5a5f c73d
000000c0: 8722 d2bd 7ee4 c43d d86c b03d fed2 c83c
000000d0: e98e bc3c 5eb1 083d df6a 6a3d 042c 203d
000000e0: 6afd 6f3c b347 213c 87e0 ddbd 6206 e8bc
000000f0: c55d 913d 1156 6c3d 416c fcbd 15e5 d8bd
00000100: 1045 443d f4e9 1d3c bd00 9c3d e995 8c3d
00000110: ae24 383e afe1 0abd 147d 98bd e574 50bd
00000120: e9cf 203d 0784 1ebd 28a8 d13d a10f 0dbe
00000130: 3f7f 2f3e a175 263e 9e72 a8bd 32fc eb3d
00000140: 2381 203e 2a3c b63c a9a0 3fbd 55ae d13c
00000150: 06ce 80bc 8971 67bb 1525 f0bd 3096 633e
00000160: 5ef4 15be d70a 04bd 5b01 2cbe 7734 c03d
00000170: 90e3 183e c851 343e 905a 84bc e7be 213e
00000180: f474 60bd 5454 fdbb ae74 16bd a93f 2ebe
00000190: 9a0e 52bd 9edd 22be ec9d 83bd e181 3a3c
000001a0: baf4 1abe dc5a f7bd 950c 513d 70d1 5fbd
000001b0: 5d92 383d 7638 c1bd fd1a 3f3e c802 70bd
000001c0: 83f9 9b3c 963f b73c 53bc 843d 1040 c5bd
000001d0: 5bd0 88bd 8e8f 84bd 10ea b1bd b7d8 443e
000001e0: ecfb 75bd 9c43 953d 2486 c83c baf2 c83d
000001f0: 3b8c 12bd f2da 94bd cc56 cfbd 398e 25be
00000200: e71b eb3d 10e1 b13d 7a35 1bbe 295b 2ebe
00000210: 07f4 723b f535 163e 231a 253d 83b8 b8bd
00000220: be37 e13d 81d7 fdbc 3126 b8bd b842 06be
00000230: bf50 923d 0ac6 1cbe d0a6 87bd 91bf f93d
00000240: 26f7 b53d 3550 29be 1af0 a7bd d54e f6bc
00000250: ec3f 113e b733 ba3d 146f ea3d 1417 c6bd
00000260: 5f77 d23c 603e a73d 15d6 e4bd 0f29 eebd
00000270: 7e4c debc 7f9c e2bc d8dc 94bd de55 f0bd
00000280: f6c0 1fbe 1d91 56bb 8b92 713d e8dc 02bd
00000290: 1629 bcbd 7ea4 df3d 1734 ba3d 02a3 173e
000002a0: 1129 91bc 9c63 cb3d 7036 f63c cfa3 d6bc
000002b0: 3624 b63d c4dc 8a3d 1b41 b8bd 23b8 a83d
000002c0: d17c aa3d 3e44 55bd fb5e f33d 0b50 cbbd
000002d0: b538 92bd e65d bcbc 585a 3b3c c50b dabd
000002e0: 4ac9 cfbd 47f4 4f3d e964 6dbd 0cd1 d73d
000002f0: 667f 2c3e 75cb 09be 29fa 0fbd 84a7 ddbd
00000300: c13c 9a3d d8d1 893d 6772 f33c 65e6 44bd
00000310: 2826 753d 6216 53bd 10dd c53d 3371 29bc
00000320: de34 00bd f01c 763d 5193 9fbd 1e8d 23bd
00000330: f9f6 363d 7ddf 7d3d 2634 4ebd 58d0 eb3d
00000340: af8b f7bd 8b32 0dbe 91ef 69bd bc66 9d3d
00000350: 62dd 503c 0388 a33d 2c1f 163e 8410 d93b
00000360: 200c 9dbd b412 0dbd a61e 0fbd 526b 5cbd
00000370: 6b02 d93d c9a9 e13c afd8 4ebd 96d2 a23d
00000380: 2ab9 d43d 40cd 8f3d 9244 ae3d 14b0 01b9
00000390: 2ff0 4c3d bfc3 1ebd c0ce 1abd 6d6d 563d
000003a0: 43ab 23be f486 3cbd b230 2c3e d61b 5cbc
000003b0: 0a0e f5bd 42c3 ecbd 378d 2dbe 8a27 be3d
000003c0: 5b9e 133e 0e0a 8fbd 825d dcbc 0631 e33d
000003d0: b576 86bd 71bf ed3d 6acb 1abc ea51 ca3d
000003e0: 7c60 293e 0591 92bd ddba c2bd acf9 e4bd
000003f0: 1804 923d 7d77 2d3e fd7d 82bd 7753 e0bd

fc3.bias f4 [8]
0.11980591 -0.053770397 0.16419366 0.19423743 0.057347428 -0.05331258 -0.025027663 -0.11155291
00000000: cd5c f53d 593e 5cbd 6222 283e 2de6 463e
00000010: 23e5 6a3d 4b5e 5abd d006 cdbc da75 e4bd

fc4.weight f4 [3, 8]
-0.16087197 -0.33507285 -0.27543482 0.27134985 0.07235888 0.10399242 -0.21993789 0.29545856
0.23439154 0.21662849 -0.34945428 -0.3817439 -0.008658999 -0.2671821 0.02377862 0.25748095
0.27412108 0.07342999 -0.028756747 0.33262032 0.0028688577 -0.18992719 0.2952811 -0.18778263
00000000: 9fbb 24be ab8e abbe cb05 8dbe 5eee 8a3e
00000010: e430 943d faf9 d43d 6637 61be 5846 973e
00000020: 5604 703e dcd3 5d3e aceb b2be f073 c3be
00000030: 79de 0dbc 18cc 88be 61cb c23c 8bd4 833e
00000040: 9959 8c3e 7662 963d 4593 ebbc 364d aa3e
00000050: 7203 3c3b 467c 42be 162f 973e 174a 40be

fc4.bias f4 [3]
-0.03171409 0.18570939 0.3131732
00000000: a2e6 01bd 9a2a 3e3e 3d58 a03e
