RL_Models_Weights/DQN_Model_Trained_Weights/model_ep0.pth (torch, 15384 bytes, 8 tensors)

fc1.weight f4 [64, 10]
00000000: 7981 44bd 9bb4 9a3e 610c 5e3e 18ad 593d
00000010: 6096 a7bd 86fc 4dbe f178 35be 6a28 ef3d
00000020: 737b a9be f2ec d1bd 366a f73d 87f7 9dbe
00000030: 1f3e 883d 54c9 0d3f 6348 71be 84a9 7e3e
00000040: 20c0 13be e093 abbe 54c8 4abe e622 babe
00000050: eabd b43e 4c3a 1a3e 8cfe 2e3e 693a 26bc
00000060: 8d77 893e b512 893c 3b2b 073e 82b6 0a3e
00000070: d701 313e 0715 663d a05f a53c 0e3e b7bd
00000080: 81f4 db3d fcb6 423e 289a 12be 5f5b 88be
00000090: 170f 0f3d 66d8 17be e7b7 0abd 1147 5dbe
000000a0: 6b8e b6be 6813 7abe ef99 6cbd 01c0 abbd
000000b0: b6a0 af3c ee42 48bd 1383 fbbd 9948 1ebd
000000c0: 7231 663e 7791 eebd 6c93 d7bd fdb9 b13d
000000d0: da54 38be e268 1abc b64a 943d 2a4a dbbd
000000e0: 0c98 90be 6d63 5a3e fde6 c8bc 08c2 babe
000000f0: 0f59 0cbf 8b35 1dbe 94ac 023e 08f4 7cbe
00000100: 5187 b73e be7a 40be f93a cd3d 91c3 1a3d
00000110: b451 f13c 4f17 d2be ff66 70be 010e 8a3e
00000120: d03c 45be adb0 e73d 4b99 a3bd 6bd7 383c
00000130: e186 c9bd befe 5abe be73 ab3e c863 4d3e
00000140: 0916 d4be ec21 1e3e 88ea 393d 4a4c e7be
00000150: ed59 b8bb 1de4 6cbe 8040 4635 9113 7ebe
00000160: 9378 edbe 8dc6 4b3e ceca 873c 733e 0ebe
00000170: 7fc6 4dbe cdcd 7abe 11d5 5bbe 80f5 673e
00000180: 1a9b 77be 1a60 b7bd 2b6d 7ebe 5ae3 1abe
00000190: 0596 ba3d ba26 a4be 9ddc ad3e dc64 463e
000001a0: 6bc9 123d d01f 223e aa52 11bf 0b3c 783e
000001b0: 45d3 863e 9953 d6be b74e 0439 c911 f4be
000001c0: d300 cdbd 377a 6a3d 7383 40be 0117 3b3d
000001d0: 0db3 533d ddce 8ebd 4f7a ad3d d149 d6be
000001e0: 645f 0d3e 456d 683e 8f1c 40be aabf b93d
000001f0: 1f6c 0e3e 70d1 d93d 6ded 45be af72 e5bc
00000200: c58f 79be dde7 73bb 34ec 29bd 51b1 a8bd
00000210: f8cb 55be 167e c4bd e929 703e 9d81 c73c
00000220: db19 ac3d f18f 073d 56fb 9abe d8a8 123e
00000230: 5c38 8fbe aa2c e3bd d77b 113e d750 923e
00000240: 1110 a33d 0d15 2d3e 289d 863e ac7d c63e
00000250: eb79 7dbe 73b6 a23d e6b7 ea3d 16bd 9b3e
00000260: f292 35be d7af cfbe 5980 eebd dd78 92be
00000270: aa30 e0bd 0128 303e eecb d1be 206a c93d
00000280: 8f8f f7bc 2df8 b4bd 05ba 9cbe 209b 4d3e
00000290: 888d 183e 3ad1 3fbe 3c35 883e 0d8c 36be
000002a0: 9d29 5bbd 352e 5d3d eb5a 38be 02ec a0be
000002b0: b2fd b53d 4778 f6bd d872 1abe a0ca 48be
000002c0: 2bf8 733e 44e7 1f3c 740e 83be 41d8 a73d
000002d0: a839 25be 7dbc 53bc af69 f83c e522 93be
000002e0: 04e3 82be 80c1 b63d 6fe7 cebc fd09 17bd
000002f0: d0c5 0abe c394 b63d 962b 393e cc98 75bd
00000300: f1db bc3e 6529 99bd 9bf9 583e 49ab fbbe
00000310: ba7b 57be 39dc 88be 3f15 eabe 4fb0 86bd
00000320: c1af 8d3e 60f1 00be fad3 05bd 7752 48be
00000330: f878 9fbd a350 c83d 98d1 08bf 5726 97bc
00000340: a610 49bd 3167 a4be 8a5c ddbe 6333 1bbd
00000350: fae2 5dbd c48d dcbe 9689 81be 876b 0d3e
00000360: 80ac 2dbe de41 a6bd 1fd5 a63c ac66 383c
00000370: 870a ad3e 1dde 0e3f 1397 df3e 24b4 19be
00000380: 6140 cb3d b036 fa3e bad7 3e3e d7c6 61bd
00000390: d1a1 83bd 17a3 b03e 27a3 903e 4754 bcbe
000003a0: 9d51 a73e a4b3 dabe 2253 a0bb ece3 1cbe
000003b0: c7f9 a9be f549 c6be 2195 2c3e c413 1a3e
000003c0: b1b9 5c3e 2b49 1abe a556 cdbd f798 a53e
000003d0: 8a16 6fbe 6284 43be 4657 c0be db9b fb3d
000003e0: 5b70 cabe ac52 8cbe 8028 803e b378 843e
000003f0: c09d cabe 245b cc3d 7c65 d33d f9cc 9ebe
-0.047975037 0.30215916 0.2168441 0.05314359 -0.08182979 -0.20115861 -0.17721917 0.1167763
-0.33101997 -0.10250272 0.12080805 -0.3085291 0.06652474 0.5538533 -0.2356277 0.24869353
-0.14428759 -0.33511257 -0.19802982 -0.3635475 0.35301143 0.15061301 0.1708929 -0.010145762
0.26849023 0.016732553 0.13200085 0.13546184 0.17285858 0.056172397 0.0201872 -0.08947383
0.10739995 0.19015115 -0.14316618 -0.2663221 0.0349265 -0.14828643 -0.03386679 -0.21609141
-0.3565553 -0.24421465 -0.05776399 -0.08386231 0.021438938 -0.048891954 -0.1228086 -0.038643453
0.224798 -0.11648839 -0.10526165 0.086780526 -0.18001118 -0.00942442 0.072408125 -0.10707505
-0.28241003 0.2132699 -0.024524206 -0.3647616 -0.5482339 -0.15352456 0.12761146 -0.24702466
0.35845426 -0.18796822 0.10021014 0.037784163 0.029457904 -0.41033408 -0.2347679 0.2696381
-0.1926148 0.11312995 -0.07988223 0.011281828 -0.09840179 -0.21386239 0.33486742 0.20057595
-0.4142306 0.15442628 0.045389682 -0.4517539 -0.0056259544 -0.23133893 7.385461e-07 -0.24812151
-0.46381053 0.1989996 0.016576197 -0.1389101 -0.20095252 -0.2449257 -0.21467997 0.22652245
-0.2418026 -0.08953877 -0.24846332 -0.1512579 0.09110645 -0.32060796 0.33957377 0.19374412
0.03583662 0.15832448 -0.5676676 0.24241655 0.2633306 -0.41860655 0.00012617825 -0.4766982
-0.10009923 0.05724546 -0.18800144 0.045676235 0.051684428 -0.0697305 0.08470594 -0.41853192
0.1380592 0.22697933 -0.18760894 0.0906976 0.13908432 0.1063565 -0.19328852 -0.028008787
-0.2437125 -0.0037217059 -0.041485026 -0.082369454 -0.20878589 -0.095943615 0.23453487 0.024353797
0.08403369 0.033096258 -0.3026988 0.14322221 -0.27972686 -0.11092503 0.14207397 0.285773
0.07962049 0.16902561 0.26291776 0.38767755 -0.2475354 0.07944956 0.11460857 0.304177
-0.17731836 -0.40563843 -0.11645574 -0.28607836 -0.10946782 0.1720276 -0.40975899 0.09834695
-0.030219821 -0.08836398 -0.30610672 0.20078707 0.1489774 -0.18732157 0.26603115 -0.17826863
-0.053506482 0.053999145 -0.18003432 -0.3143006 0.08886279 -0.1203466 -0.15082872 -0.19608545
0.23825137 0.009759728 -0.25596964 0.08195544 -0.16135275 -0.012923357 0.030323831 -0.2873756
-0.25563824 0.08923626 -0.02525684 -0.03687476 -0.13552022 0.08915093 0.18083033 -0.05996017
0.36886552 -0.074785985 0.21188967 -0.49154118 -0.21043292 -0.26730517 -0.45719334 -0.06576597
0.27673152 -0.12592077 -0.03267286 -0.19562708 -0.07786745 0.09781005 -0.53444815 -0.018450899
-0.049088143 -0.3210998 -0.43234664 -0.037890803 -0.05417154 -0.4307691 -0.25300282 0.1381055
-0.16960335 -0.08118032 0.020365296 0.011254948 0.33797094 0.5580767 0.43669948 -0.15010124
0.09924389 0.48869848 0.1863698 -0.05512127 -0.064273484 0.34499428 0.28249475 -0.3678305
0.32679453 -0.4271518 -0.0048927227 -0.1532132 -0.33198377 -0.387283 0.16853763 0.15046602
0.2155521 -0.15066974 -0.10026292 0.32343265 -0.23348442 -0.19093469 -0.37566584 0.122855864
-0.39538845 -0.27406824 0.250309 0.25873336 -0.3957348 0.09978321 0.10322091 -0.31015757

fc1.bias f4 [64]
00000000: 3524 2abe 1f0f 39be 452d e83e afcf 1cbe
00000010: 33ae 9cbe cfb6 b53d 555f 2fbd 47d6 75bd
00000020: cd2c 3fbd f8c2 993d 3a00 8cbe 64e5 113c
00000030: c5e0 dfbd 9e0a c3be cb3c 6abd 86e2 1a3e
00000040: 8481 223d b492 8abd fce8 9cbe 2811 653e
00000050: 600b 9fbd 1ce3 bebb 81ea e03e 8217 da3c
00000060: a405 56be dca6 323e c63b 703d 4261 123c
00000070: c4f2 a9be 7dcd 08be 09b0 58be f0de d4bd
00000080: 3070 3fbd ec9b abbd 39a4 903c dea2 68be
00000090: 6c35 aabd 671d 8bbe ec28 e8bd 1de7 a1be
000000a0: 8dfb 3dbe cc2d ce3c 7b54 f8bd ace2 8b3e
000000b0: d455 cebd ad08 05be 82f4 bebd d50a 7ebe
000000c0: 23a0 973b 6fea 23be 523e 9abe b78b 46be
000000d0: a7fe 2bbe cc2f 7b3d f40b 81bd 4a33 bbbd
000000e0: ef52 60bd 0f53 82bc 7f9f 6c3e ec04 d5bd
000000f0: 6cf6 f43e 517f dbbd f537 98be 10d6 e6bd
-0.16615374 -0.18072174 0.45347038 -0.153136 -0.30601653 0.088727586 -0.042815525 -0.060018804
-0.046673585 0.075078905 -0.27343923 0.008904789 -0.10931543 -0.38094038 -0.057186883 0.15125474
0.039674297 -0.06766263 -0.30646503 0.22369826 -0.077658415 -0.0058254134 0.43928912 0.026622538
-0.20900589 0.17446464 0.058650754 0.008934321 -0.33193028 -0.13359638 -0.21160902 -0.103940845
-0.04673785 -0.08379349 0.017656432 -0.22718379 -0.08310971 -0.2717087 -0.1133593 -0.31621638
-0.1855299 0.025168322 -0.12125488 0.27321374 -0.10074964 -0.12991591 -0.0932398 -0.2480882
0.004627244 -0.16007398 -0.30125672 -0.19389234 -0.16796361 0.06132488 -0.06301108 -0.09140642
-0.05476659 -0.015908746 0.23107718 -0.104013294 0.47844255 -0.10717643 -0.29730192 -0.11271298

fc2.weight f4 [32, 64]
00000000: c6a0 f9bd 7690 e93d d5e6 04be c888 e1bc
00000010: 7031 ffbd b38a d5ba 3c8b fcbd a67d d1bd
00000020: 9f7c 73bc 88bf 04bd 542d cdbd e4a2 2ebe
00000030: 7041 2fbd a631 95bd b8fb 8abd 95a1 11be
00000040: 4d0e 07be 9fe4 4dbe 5d62 ef3b a472 a23d
00000050: aebb c6bd 58bb 3b3d e8f2 68be 6e3c 64bd
00000060: c0ac dfbc c79c 69be 182f a2bb d726 bbbd
00000070: f4f6 07bb ecd1 123b 343b cebd 5c91 dcbd
00000080: 78ad afbd cf2e 6d3d e025 15bd 004b 5f3a
00000090: cda8 ccbd 5854 0f3d 1252 cabd ecc7 c3bd
000000a0: f852 efbd b3de f0bd 143d 4abd b8af 1dbe
000000b0: dee5 82bd 749e 7b3b 7c00 4a3c 2513 0e3d
000000c0: 24b2 e03d 2878 e9bd 11dd f43c 4788 15be
000000d0: 0c8d 773d 5def 74bc 28af 83bc 1655 bdbd
000000e0: f675 abbd 2a19 dd3d f39b ca3c 00bc 3c3b
000000f0: 22d3 e5bd b285 dfbc c9fa 1e3d d5fc 52bd
00000100: 7c62 a0bc 7486 25be db54 2a3d c84e 7dbd
00000110: 1dbc 9a3d e5de 1abe 7d1b b03d c668 09bd
00000120: b4ad 09be 1190 23be be6c 703d 8f75 35bd
00000130: 4cb1 493b c7dc c7bc 2372 a03d 9ad3 05bd
00000140: c194 8f3d cf12 0ebd 925a e8bd c9a3 27be
00000150: 40ab b7bd b3e0 7dbd d956 bfbd 338b d2bd
00000160: c8e5 b0bd 6c02 42bd 4ab4 adbc 7b40 94bd
00000170: e05c a7bc 4f0f 97bd 33b0 3dbd 9ac3 89bd
00000180: 2a38 57bd fa5d e0bd dd94 393d 1c74 413d
00000190: 09e7 573d b945 1f3c 94a1 a73d ca69 a33d
000001a0: c55f 833c 3305 7fbc 151c 123e d90e 05be
000001b0: d7f3 433d b093 a0bd 9951 11bd 6266 af3d
000001c0: e9f9 03bc aa9a 03bd 6c9b c6bd edbe 1e3c
000001d0: 8c83 e83c 89bc 85bd 3029 b5bd 25fb 51bd
000001e0: 6ce2 b7bb 38cd 52bd 23ac d93b 3793 ffbd
000001f0: d99a b7bd f968 aeba 524f 00be e102 0cbd
00000200: 574c 823d d4b4 20be 4345 3abd 763f e8bd
00000210: d405 473d b408 53bd b9a1 bbbd e793 013d
00000220: 0317 64bd 6531 d13d b09d 573d 5d5a 03be
00000230: 51b5 3d3d b78b 9e3d 28c2 a63d 1342 8cbd
00000240: d315 91bc f7fa 8ebd 3710 8ebc 2d77 5cbd
00000250: 8351 263c c6ed e1bd 5f44 2a3b 182a 1ebd
00000260: 63ce 1ebe 131c a53c 0303 ee3a 512f 84bd
00000270: aacb 883c d98a 51bd 1f6e 9b3d d94a 9abd
00000280: bfa0 d9bd c2f5 f6bd e084 243e 7c6b dc3d
00000290: 4aa3 2e3c 1fb0 e3bd ff00 87bd 30aa 693d
000002a0: f612 a0bc 1f7f debc de10 063d 7b1e 16bd
000002b0: f112 803c 4098 90bc d4a5 79bd 8115 9b3d
000002c0: 1134 893d a470 b5bd 629c d53c 6c16 fbbd
000002d0: d506 a7bd 56af ffbd be3a a6bd 5285 babd
000002e0: 459b 28be f09a 70bd 14fd 7abd 2d7a 4ebd
000002f0: 1223 1bbe 0acb de3d 54d7 d33d 46e0 acbd
00000300: 20bc f6bd 4733 91bd 1d35 12be 9a66 df3d
00000310: ea92 f03d ebca c4bb dfdb c0bd 6f17 403d
00000320: 3393 d3bd 0859 1dbe 72f3 603d 80c9 563d
00000330: 1817 f4bc 1dc7 47be 3afc 61bd 643e 883c
00000340: f6de ba3c 774a 75bd 3b44 493d 97da 893c
00000350: 7179 0ebe 1b57 3cbe 8854 f8bd 34b2 3fbd
00000360: 4092 5cbd 8cff bcbd 9117 09be a5ae 663d
00000370: 5ff7 eabd a857 4bbe 63fa 08bd c741 513d
00000380: d639 2b3d b941 30be 2b79 253d 8020 6cbd
00000390: accb e9bb 3018 89bd 80fd 853d 8eb7 f9bd
000003a0: da68 51bd f465 32bc 0e10 88bd f43d 77bc
000003b0: f29b 16be 4f4e d6bd 159e fcbd 18bf 3e3d
000003c0: b82b a0bc 060e d1bd 30e5 0ebd 6f17 a7bd
000003d0: 1639 a7bd 6677 47bd e183 35be e429 38bd
000003e0: 4c3e cbbd 5810 2ebd 39fe afbd e984 16bb
000003f0: 6080 c13c 64d4 39bd 502b 0fbe f99c a43d
-0.12188868 0.11404507 -0.1297868 -0.027531043 -0.12460601 -0.0016291946 -0.12331244 -0.10229044
-0.014861255 -0.03240922 -0.10018411 -0.17054325 -0.042787015 -0.0728486 -0.06786293 -0.14221795
-0.13189049 -0.20106743 0.007305427 0.07932022 -0.09703766 0.04583296 -0.22748911 -0.055721693
-0.027304053 -0.22813712 -0.0049494617 -0.091382675 -0.002074656 0.0022402955 -0.10069886 -0.107699126
-0.085780084 0.05790597 -0.036413074 0.0008517951 -0.09993134 0.034992546 -0.09878935 -0.095596164
-0.11685747 -0.117612265 -0.049374655 -0.15399063 -0.063915 0.0038394006 0.012329217 0.034686226
0.10971478 -0.11399871 0.029890569 -0.14602767 0.060437247 -0.014949647 -0.016074732 -0.092447445
-0.08372109 0.10795815 0.024732566 0.002879858 -0.11221911 -0.02728543 0.038813386 -0.05151065
-0.019578211 -0.16164571 0.04158483 -0.06184271 0.07555411 -0.1512409 0.08598993 -0.033547185
-0.13445169 -0.15972926 0.058697455 -0.044301566 0.0030775843 -0.024397267 0.0783427 -0.032672502
0.070107944 -0.034685906 -0.113454 -0.16371073 -0.0896821 -0.061981868 -0.09342737 -0.102804564
-0.08637577 -0.04736559 -0.021204133 -0.07238861 -0.020430028 -0.07375967 -0.046310615 -0.06726761
-0.052543797 -0.109554246 0.045307983 0.04722987 0.052710567 0.009721213 0.081851155 0.07979162
0.016036877 -0.015565204 0.14268525 -0.12993945 0.047839966 -0.07840669 -0.03547821 0.0856445
-0.008055189 -0.03212992 -0.09697613 0.009689075 0.028383039 -0.06530101 -0.088457465 -0.0512649
-0.0056117084 -0.051465243 0.0066428347 -0.12479251 -0.08965082 -0.0013306431 -0.12530258 -0.034182433
0.06362217 -0.1569398 -0.04547621 -0.11340229 0.048589543 -0.05152197 -0.091617055 0.03163519
-0.05568601 0.102144994 0.052640617 -0.1282744 0.046315495 0.07741492 0.08142501 -0.0684854
-0.017710602 -0.069814615 -0.017341716 -0.053824592 0.01015127 -0.1103168 0.0025980694 -0.038614362
-0.15508418 0.020154988 0.0018158857 -0.064543374 0.016698677 -0.051157806 0.07589363 -0.07533807
-0.10626363 -0.12058593 0.16066313 0.107626885 0.010659048 -0.11117577 -0.06591987 0.05704707
-0.019540291 -0.027160225 0.03273093 -0.036650162 0.015634032 -0.017650723 -0.06094916 0.07572461
0.06699384 -0.08859375 0.026075546 -0.12260136 -0.081556 -0.124846146 -0.08116673 -0.0910746
-0.1646548 -0.05874151 -0.06127651 -0.050409485 -0.15150097 0.108785704 0.10343805 -0.08441214
-0.12047601 -0.070898585 -0.14278074 0.109082416 0.11746772 -0.006005635 -0.09416937 0.046897348
-0.103308104 -0.15365994 0.054919668 0.05243826 -0.029796168 -0.1950955 -0.055172183 0.016631313
0.022811394 -0.05988547 0.049137335 0.016827865 -0.13913514 -0.18392603 -0.12125498 -0.046800807
-0.053850412 -0.09228429 -0.13387896 0.056318898 -0.114729635 -0.19857657 -0.033441912 0.05108812
0.041803204 -0.17212571 0.040398758 -0.057648182 -0.0071348753 -0.066940665 0.06542492 -0.121932134
-0.051125385 -0.010888565 -0.06643687 -0.015090454 -0.14707926 -0.10464155 -0.12334839 0.04656896
-0.019552097 -0.10207753 -0.03488654 -0.081587665 -0.08165185 -0.04869785 -0.17726089 -0.044961825
-0.099239916 -0.042496055 -0.08593411 -0.0022967404 0.023620784 -0.045368567 -0.13981366 0.08037753

fc2.bias f4 [32]
00000000: 95cb 62be e1e4 04be 3c91 c8bd 535b 283d
00000010: 4e72 a1bd 37fa 86bc 681f 113c 0717 18bc
00000020: 4232 06be 749a 87bd 49f1 06be 6c06 ccbd
00000030: 7212 2dbe f76c 7ebd 244a 13be a851 c43c
00000040: c85b 06be 3094 80bd ff1a 1cbe 3aa4 a3bd
00000050: 45f8 25be 4468 38be ecf6 d4bd 44f9 a63c
00000060: a0f2 efbd f403 06be 2bb5 bd3e 3209 b4bd
00000070: 8e54 65bd 349d 84be 4c80 79bd 2360 a7bd
-0.22147973 -0.12977935 -0.09793326 0.04110272 -0.0788313 -0.016476734 0.0088575855 -0.009282834
-0.1310511 -0.066212565 -0.1317798 -0.099621624 -0.16901568 -0.062115636 -0.14383751 0.023964718
-0.1312095 -0.062782645 -0.15244673 -0.07990308 -0.16207989 -0.18008524 -0.10398659 0.020382531
-0.11716199 -0.13087445 0.37052283 -0.08790816 -0.05598884 -0.25901186 -0.06091337 -0.081726335

fc3.weight f4 [8, 32]
00000000: 2383 e33c 35c8 b73b 3fba a4bc ba75 84bd
00000010: 0bcb 11bd c166 38bc 2905 14bd 50ae ae3c
00000020: 9e83 2fbd 9bd3 fbbc 10d2 5bbc ae13 84bd
00000030: d47e 85bd ad89 08bd 29b9 a1bd 3a71 b03d
00000040: 81b1 04be e43a 5bbb 2afe 6c3d eb4f 953c
00000050: 5c36 e1bd 63a2 ca3d 8a6a 6dbd c5db a5bd
00000060: 0b57 78bd 7122 8f3d f169 85bc 323f 423d
00000070: 3f15 c1bb 034e babd 0319 e7bc 53d0 de3d
00000080: b46e f9bd 9c08 e33d 9e06 a2bc d83f e0bd
00000090: 776b 053d 51f7 81bd 5874 e53d 6bf3 28be
000000a0: 8ca4 e1bd fdda 23bd 5107 a4bc fe65 503d
000000b0: c755 143d 96c2 ad3d dfe4 0bbe 5e27 fc3d
000000c0: 9f6a d63d 7109 7bbd 3eb4 d3bc 4559 163e
000000d0: b47a 01be 761a a83d 7b22 193e 8374 60bd
000000e0: e1ab 853d 813c fc3c 98e8 27be b544 b6bd
000000f0: bf6e 26be 8d3a c73c abdd 183e d813 a0bb
00000100: 11a1 d03c 60ba 0a3e 35cf 123d c2f5 48be
00000110: 357b 8c3d 8ea7 2a3d e28a c6bd 084b 95bc
00000120: bb1b b93c 70bf 34bd 5882 4bbe dc76 05be
00000130: 6c2d 953d 6014 d0bd dcac 11be 09a3 093e
00000140: 03a4 a4bd bd70 5abe 0a36 d23c 728e d9bd
00000150: f4c6 21bb f94a 90bd f09a c13d 83b3 003d
00000160: a8fe 993c 2f75 793d 735a 28bc c825 3ebd
00000170: 0e71 81bd 8a39 40be 0d32 e3bd ea30 7f3d
00000180: 7610 afbd f4d8 2dbe 790b 97bc 6c30 833d
00000190: 4e32 e9bd b14b b5bd 5381 913b cb30 283d
000001a0: 076e f9bd be7b c0bd fda9 f53c b7fa 2d3e
000001b0: 935e dd3d df8f ea3d 2723 27be 7b63 13bc
000001c0: 250f 153e 9e32 363c cf81 09be 3d25 203e
000001d0: f59e 13be 2104 533d 1119 09bd 5dd2 c8bd
000001e0: 1730 2b3c 5f1d d63d 20ad 47bd 07c4 f33c
000001f0: 06d1 ffbd 9b2b 03be a237 ae3d fce4 54bd
00000200: 94e0 b23c 6f40 46bd bfce 72bc 4cab 3abd
00000210: b43b e23d e65d 16be d51d c43d 729d c8bc
00000220: bb6e 9b3d c8c8 d5bd 2b0a ba3c 2ee2 253c
00000230: 8084 e2bc 8344 59bd add0 da3c 293d 3bbe
00000240: 7e4f ba3d 8b30 3bbd 1581 1bbd 0b86 2c3d
00000250: a634 473e ee95 29be 6843 c0bd 7304 53bc
00000260: c105 7abd 1bba 3e3d 5519 40be a25d 9cbd
00000270: 2824 b43d 9f27 85bc cd3f c9bd cd28 cdbd
00000280: d278 a5bb ceaa 4f3d e3a8 37be 2ec9 5f3d
00000290: fa80 1a3e 115d a73d b041 1d3e a895 b6bc
000002a0: 01e3 b9bc d7b2 3abd 7ec8 023d f96a f83d
000002b0: 2418 25be 78a6 b53d 3902 1fbd e066 cb3c
000002c0: c782 aabd 69cd 28bd a72a 38bc 05fd fc3d
000002d0: 5e6f 6ebd 884f f13d eacc ea3d 33a0 82be
000002e0: fc57 1ebe d5ef 733d 6d30 d9be 9f07 18be
000002f0: 41e3 55bc 7b6f 1d3d 8583 4ebe ada5 eebd
00000300: dc5e 07be 8afd adbb fc34 0e3c 448d f4bd
00000310: 0c14 093e 3f83 803d 354b 9cbd d297 19bd
00000320: 31f9 633d 9e00 edbc cbf9 2abd af69 cb3d
00000330: 8bfe 3c3c 4fee b2bd 53b3 813c b6a3 9fbd
00000340: e388 a13c 66b1 663e 6d15 e83c 3480 c73d
00000350: 5026 e23d d639 febc 43bc 18bd 8509 26bc
00000360: 84fa 1e3d 1159 273e 7df7 25be 8058 93bd
00000370: 2b85 9ebd cac6 793c 6cb7 b2bd 64d6 a93d
00000380: a17f 79bd fee3 bf3d dead 2a3e 1937 2dbe
00000390: 12e6 17be d617 b03d ff69 f5bd c331 0dbe
000003a0: 1dc2 16be 4d37 a83c 99b9 5abd 863e fa3d
000003b0: ed17 a5bd 18c3 0fbe 63c1 04bd d212 0b3e
000003c0: 4362 75bd 42cf 073c 6854 c03d 7aff 723d
000003d0: ca8f 2ebe 2665 34bd 88be 34be a9a0 a2bd
000003e0: 1a2d 023d 970e 20be 937c 81ba e87d 29be
000003f0: 21fa 2bbe 0d3c 2abc 8ffa 873c 01c6 753d
0.027772492 0.0056085833 -0.02010834 -0.06467767 -0.035594027 -0.011254967 -0.036137734 0.021323353
-0.04285013 -0.03074055 -0.013416782 -0.06449066 -0.06518331 -0.033334423 -0.078966446 0.08615346
-0.12958337 -0.003345185 0.057859577 0.018226584 -0.10996696 0.09894254 -0.05796293 -0.08098558
-0.060629886 0.06988991 -0.016285868 0.04742355 -0.0058924253 -0.09096911 -0.028210169 0.108795784
-0.12179318 0.110856265 -0.019778546 -0.10949677 0.03257319 -0.06346 0.112038314 -0.16499107
-0.11017713 -0.040003765 -0.02002302 0.050878517 0.036214616 0.0848438 -0.13661526 0.12312196
0.10469555 -0.0612883 -0.025842782 0.14682491 -0.12644464 0.08208172 0.1495456 -0.054798614
0.06526924 0.03079057 -0.16397321 -0.088998236 -0.16253184 0.024319911 0.1492831 -0.004885178
0.025467427 0.13547659 0.03584214 -0.19624999 0.068594374 0.0416637 -0.096944585 -0.018224254
0.02259623 -0.04412788 -0.19873941 -0.13033623 0.07284054 -0.10160136 -0.14226097 0.13441099
-0.08039095 -0.21332069 0.025660533 -0.106228724 -0.0024685236 -0.0704555 0.0945338 0.031421196
0.018798187 0.06090277 -0.010275471 -0.04642275 -0.063203916 -0.1877195 -0.11093531 0.062302507
-0.085480615 -0.16977292 -0.018438088 0.0640572 -0.11386548 -0.088523276 0.0044404655 0.041062158
-0.12179189 -0.09398602 0.029988283 0.16990171 0.10809054 0.114532225 -0.16322003 -0.008995886
0.14556558 0.0111204665 -0.13428424 0.15639205 -0.14416106 0.05151761 -0.03347117 -0.098057486
0.010448477 0.10454821 -0.04874909 0.029756559 -0.1249104 -0.12809603 0.08506705 -0.05197619
0.021835603 -0.048401292 -0.0148198 -0.045573518 0.11046544 -0.14684257 0.095760025 -0.024489138
0.075894795 -0.104386866 0.022709927 0.010124726 -0.027651072 -0.053043853 0.026710832 -0.1828505
0.09097193 -0.04570059 -0.0379649 0.04212002 0.19453678 -0.165611 -0.09387857 -0.012879479
-0.061040644 0.046564203 -0.18759663 -0.076350465 0.08795959 -0.016254244 -0.09826622 -0.10017548
-0.0050498033 0.0507 -0.17935519 0.05463522 0.15088263 0.08172048 0.15357089 -0.022288159
-0.022691252 -0.04558071 0.031929485 0.121297784 -0.1612249 0.08869642 -0.03882048 0.024829328
-0.08325725 -0.04121152 -0.011240638 0.12352947 -0.058211677 0.117827475 0.114648655 -0.25512847
-0.15463251 0.059554894 -0.42419758 -0.14846657 -0.01305467 0.038436394 -0.20167358 -0.11652694
-0.1321978 -0.005309765 0.008679625 -0.11941007 0.13386554 0.06275033 -0.07631532 -0.037498303
0.05565757 -0.028930958 -0.041742127 0.09932267 0.011535297 -0.0873686 0.015832579 -0.07794897
0.019718593 0.2252861 0.02833053 0.0974125 0.11042464 -0.031033438 -0.037288915 -0.010134106
0.03881313 0.1634257 -0.1620769 -0.071946144 -0.077402435 0.015245149 -0.08726391 0.08292845
-0.060912732 0.09369658 0.16667888 -0.1691555 -0.14833859 0.08598296 -0.11983108 -0.13788514
-0.14722486 0.020534182 -0.053399656 0.12218957 -0.08061204 -0.14039266 -0.03241099 0.13581398
-0.059908163 0.00828916 0.09391099 0.059325673 -0.17047039 -0.044041775 -0.17650807 -0.079408
0.031781293 -0.15630566 -0.0009879045 -0.16551936 -0.16794635 -0.010390294 0.016598968 0.060003284

fc3.bias f4 [8]
00000000: 4219 54bc 23fc d5bd 40bb d0bd 0295 a5bd
00000010: a36c eabd cd0a 06bd 8356 1fbe 4465 28be
-0.012945475 -0.10448482 -0.10191965 -0.080850616 -0.11446502 -0.032725144 -0.15560345 -0.1644488

fc4.weight f4 [3, 8]
00000000: fedc aabe 4d58 d2bc d6b0 6fbe 0039 83be
00000010: a3a4 35be 6a2c 86be cf38 a7be 614d 543e
00000020: fc35 2ebd 8c3f 4b3e 4728 82be 99b5 9d3e
00000030: cad0 1f3e f35b 35be 3fdf f7bd e431 47bd
00000040: 9597 03be d05b b9bb f7f5 36be fcfe 73b9
00000050: d435 78bd bba2 13be 7974 a3be 4206 aabd
-0.3337173 -0.02567687 -0.23407301 -0.25629425 -0.17738585 -0.2620576 -0.3266053 0.20732643
-0.042531952 0.1984846 -0.25421354 0.3080261 0.1560699 -0.17710857 -0.12103128 -0.048631564
-0.12850793 -0.005656697 -0.17867266 -0.00023269275 -0.06059821 -0.14417545 -0.319248 -0.08301975

fc4.bias f4 [3]
00000000: 3b6b 82c0 267b 81c0 37c8 8440
-4.0755897 -4.046283 4.1494403
