RL_Models_Weights/DDQN_Model_Trained_Weights/model_ddqn_ep8.pth (torch, 15444 bytes, 8 tensors)

fc1.weight f4 [64, 10]
0	0xbef377e1	-0.47552398
1	0xbe0945b6	-0.13405499
2	0xbe18a2c6	-0.14905843
3	0xbec98bef	-0.39364573
4	0xbed6638e	-0.4187283
5	0x3e2a1ed2	0.1661332
6	0xbea28a7e	-0.31746286
7	0xbf177335	-0.59160167
8	0xbe81600a	-0.25268584
9	0xbdb60a9f	-0.088887446
10	0xbe5409e9	-0.20706905
11	0xbebea9ef	-0.37239024
12	0xbecd656e	-0.40116447
13	0xbe68389c	-0.22677845
14	0xbe9fd425	-0.3121654
15	0xbe4b3575	-0.19844611
16	0xbe467e5a	-0.19384137
17	0xbe924477	-0.2856786
18	0xbeb03ea1	-0.34422782
19	0xbe583fac	-0.21118039
20	0xbf7069df	-0.93911546
21	0xbe8bd674	-0.27312052
22	0xbe373308	-0.1789056
23	0xbcddbd8a	-0.027067918
24	0xbe07e40f	-0.13270591
25	0x3ee6cb84	0.45077145
26	0xbf1f5bb9	-0.6224933
27	0x3e979cad	0.29611722
28	0xbe9fe519	-0.31229475
29	0xbf0d0c11	-0.55096537
30	0xbe5a7764	-0.21334606
31	0xbee9e490	-0.45682192
32	0x3dc2d937	0.09514087
33	0x3dcfcaa9	0.10146076
34	0x3de5caac	0.11220297
35	0xbc5a4509	-0.013322123
36	0xbe949a8c	-0.2902416
37	0x3e86af89	0.26305798
38	0x3d04b441	0.032398466
39	0x3cf38a26	0.02972896
40	0x3de6e0d4	0.11273351
41	0xbd849f6f	-0.06475722
42	0xbf21831d	-0.6309069
43	0x3ed9ed97	0.4256408
44	0x3e76ec38	0.24113548
45	0xbf0b41ac	-0.5439708
46	0x3eecea1d	0.46272364
47	0x3ef68709	0.481499
48	0x3eb117ca	0.34588462
49	0x3e775762	0.24154428
50	0x3e892371	0.26784852
51	0xbe67c182	-0.22632411
52	0xbdfcb9c3	-0.12340119
53	0x3c7af915	0.015318175
54	0xbf2b60dd	-0.66944677
55	0xbf1a9a09	-0.6039129
56	0x3d030364	0.031985655
57	0xbf0d94bc	-0.55305076
58	0xbf0669f4	-0.5250542
59	0xbd7cf44e	-0.061756425
60	0xbdef6a5f	-0.116902106
61	0xbe6575a5	-0.22408159
62	0xbd57f121	-0.052720193
63	0xbe52144b	-0.20515554
64	0xbe08191d	-0.1329083
65	0xbe79880e	-0.24368307
66	0xbcf8246c	-0.030290805
67	0xbe3e743c	-0.18599027
68	0xbc1953a5	-0.009358321
69	0xbde236ac	-0.11045584
70	0x3d417323	0.047228944
71	0xbe3e8125	-0.18603952
72	0xbe17e6f4	-0.14834195
73	0x3ebbc00d	0.3666996
74	0xbebc08ed	-0.3672556
75	0x3f775cff	0.96626276
76	0x3f0c5999	0.54824215
77	0xbf3a434f	-0.72758955
78	0x3e5b852a	0.21437517
79	0x3f2f2828	0.6842065
80	0x3d47a0dc	0.04873739
81	0xbedd3bc1	-0.4320965
82	0x3e596a19	0.2123188
83	0xbea7ad8b	-0.3274959
84	0xbc197c70	-0.009368047
85	0x3e9f608e	0.31128353
86	0x3e79d774	0.24398595
87	0xbf91e740	-1.1398697
88	0x3d6d0f66	0.057876013
89	0x3f29bcf8	0.6630397
90	0xbedfce13	-0.4371191
91	0xbe168b3b	-0.1470155
92	0x3e773d81	0.24144556
93	0xbf2869c0	-0.6578636
94	0xbdc18b1a	-0.0945036
95	0xbd4b23f7	-0.049594846
96	0xbe8d3952	-0.27582794
97	0x3e60f24d	0.2196743
98	0x3cc357ec	0.023845635
99	0xbe036324	-0.12830788
100	0xbe62b893	-0.22140722
101	0xbf0c900c	-0.549073
102	0x3dde3b45	0.108511485
103	0xbf24da03	-0.6439516
104	0x3e3444e7	0.17604409
105	0xbe28f8e8	-0.165012
106	0xbe2a4f1c	-0.1663174
107	0xbe9dcabb	-0.30818734
108	0xbc922cb6	-0.017843585
109	0xbf02abfa	-0.51043665
110	0xbec65fad	-0.3874487
111	0x3c0f31a5	0.0087398635
112	0xbeb1cd80	-0.34727097
113	0xbeeed16f	-0.4664416
114	0x3ce1a0aa	0.02754243
115	0xbd946a48	-0.07246834
116	0xbea4e5d9	-0.3220661
117	0x3e709067	0.23492585
118	0x3df0d978	0.11760229
119	0xbeb219c9	-0.34785298
120	0x3ea57335	0.32314458
121	0x3f90c3da	1.1309769
122	0x3f5ef55e	0.8709315
123	0x3eedd19e	0.46448988
124	0x3faa9430	1.3326473
125	0x3e9af4d3	0.3026491
126	0xbc96c317	-0.018403573
127	0x3fa15297	1.260333
128	0x3f688fc5	0.90844375
129	0x3eea84ce	0.45804447
130	0x3e0f1ee3	0.13976626
131	0x3e9b4678	0.303272
132	0x3e8535d9	0.26017645
133	0xbdcd727c	-0.10031602
134	0xbd53a65c	-0.051672325
135	0x3ebac9b4	0.36482012
136	0x3dc4664a	0.095898226
137	0xbf56a3fc	-0.8384397
138	0x3eb86462	0.36014086
139	0x3e87fcab	0.26559958
140	0xbee214f5	-0.44156614
141	0xbf03dd73	-0.5150978
142	0xbef0810b	-0.46973452
143	0x3e484c5a	0.19560376
144	0x3f063335	0.52421886
145	0xbef58429	-0.47952393
146	0xbec3110b	-0.3809894
147	0x3e9344ff	0.28763577
148	0xbf226d4a	-0.6344801
149	0xbe4b6a1c	-0.19864696
150	0xbbe440c4	-0.0069657285
151	0xbf039475	-0.513984
152	0xbc6fdda2	-0.014640244
153	0xbe5ace9a	-0.21367875
154	0xbf30e6da	-0.6910225
155	0x3f2c8c26	0.6740135
156	0x3e9e4282	0.30910116
157	0xbf22a887	-0.635384
158	0x3df0c017	0.11755388
159	0x3eed1fbd	0.46313277
160	0xbe393269	-0.18085636
161	0xbe582c64	-0.21110684
162	0x3d8153e3	0.06314828
163	0xbf07bb94	-0.53020597
164	0xbea0d24b	-0.3141044
165	0xbebd9423	-0.37027082
166	0x3cd30776	0.025760394
167	0x3bc56f6a	0.0060252445
168	0xbccbd116	-0.024879973
169	0xbbb130d0	-0.00540743
170	0xbccfb368	-0.025354102
171	0xbd0f8533	-0.035039138
172	0xbdc7f4ea	-0.097635105
173	0xbe59a4a7	-0.21254216
174	0xbd08c082	-0.033386715
175	0xbd9b9182	-0.07596113
176	0xbe890ecf	-0.2676911
177	0xbe605a35	-0.21909411
178	0xbe6f056e	-0.23341915
179	0x3d8aacd6	0.06771247
180	0xbefb6cf4	-0.49106562
181	0x3b8d7489	0.0043168706
182	0xbd6c7561	-0.05772913
183	0xbe41415c	-0.18872589
184	0xbedd478f	-0.43218657
185	0xbe8d62e2	-0.27614504
186	0xbdc064d6	-0.09394233
187	0xbe406130	-0.18787074
188	0xbebfd81d	-0.3746957
189	0xbf027866	-0.50964963
190	0xbd0d0b7b	-0.034434777
191	0xbe49b6ff	-0.19698714
192	0xbd4fd7bc	-0.05074285
193	0x3e3047b8	0.17214859
194	0xbd14b68b	-0.0363069
195	0xbe79a9f3	-0.24381237
196	0x3c047d7c	0.008086558
197	0xbe559814	-0.20858794
198	0xbe2a74dd	-0.16646142
199	0xbe12ead1	-0.14347388
200	0x3d83c9aa	0.06434949
201	0x3d87287a	0.06599517
202	0xbc81b742	-0.015834454
203	0xbe19a30d	-0.15003605
204	0xbe071c76	-0.1319445
205	0xbd66ac95	-0.05631693
206	0xbd926f8d	-0.07150183
207	0xbe02ed16	-0.12785754
208	0xbe3d7861	-0.18502952
209	0xbe3fd3b0	-0.18733096
210	0x3d32ac8d	0.04362159
211	0xbde14a89	-0.110005446
212	0xbe88b999	-0.267041
213	0xbe9cfca6	-0.30661505
214	0xbe308407	-0.17237864
215	0x3ea14e35	0.3150498
216	0x3e392750	0.18081403
217	0xbf664c50	-0.89960194
218	0x3c9050c3	0.017616635
219	0x3e996485	0.29959503
220	0x3e689459	0.2271284
221	0xbd7ca689	-0.061682258
222	0xbce001f8	-0.027344689
223	0xbdf0a4df	-0.11750197
224	0xbe801840	-0.250185
225	0xbd53a7e3	-0.05167378
226	0x3d0118af	0.03151768
227	0xbe2e0a9e	-0.16996238
228	0xbdcee423	-0.101021074
229	0xbd8c8861	-0.0686195
230	0x3eacda5e	0.3376035
231	0x3ddf38d1	0.10899509
232	0x3d2afaa1	0.041742925
233	0xbea07036	-0.3133561
234	0x3f02eed5	0.5114568
235	0xbe9b7895	-0.30365434
236	0xbe0bdedc	-0.13659233
237	0xbcb36970	-0.021900862
238	0x3ee05e65	0.43822017
239	0xbe25f103	-0.1620522
240	0x3da4cc75	0.080468096
241	0xbcab81b9	-0.02093588
242	0x3d14a5d6	0.036290966
243	0xbf293c9c	-0.6610811
244	0xbef38d43	-0.47568712
245	0x3dafca01	0.08583451
246	0xbd44dd6a	-0.04806272
247	0xbe335b0b	-0.17515199
248	0xbeebc4f9	-0.46048716
249	0x3e53924a	0.20661274
250	0xbee21d0d	-0.4416279
251	0x3c6456c7	0.013936705
252	0x3d2ff857	0.042961445
253	0xbebdfd04	-0.37107098
254	0xbce9aeca	-0.028525729
255	0xbe678728	-0.22610152

fc1.bias f4 [64]
0	0xbf059df6	-0.52194154
1	0xbeaffc84	-0.34372342
2	0xbea8a25c	-0.3293637
3	0xbdd92ad6	-0.106038734
4	0x3e9fba39	0.31196764
5	0xbf0e927b	-0.5569226
6	0xbefdce50	-0.49571466
7	0xbecfa240	-0.40553474
8	0xbc83f063	-0.016105836
9	0xbf20b24c	-0.6277206
10	0xbd8f72a5	-0.070042886
11	0xbeec59ad	-0.46162167
12	0x3faac5b5	1.3341585
13	0x3dff001b	0.12451192
14	0x3d6bcdc0	0.057569265
15	0xbd7627eb	-0.060096662
16	0xbda01c1c	-0.078178614
17	0xbdf2326c	-0.118260235
18	0xbeb0fbae	-0.34567016
19	0xbe59f1c1	-0.21283628
20	0xbe9a172b	-0.300958
21	0xbea1456d	-0.3149828
22	0xbe251872	-0.16122606
23	0x3e8179fb	0.25288376
24	0xbf21b8f0	-0.6317282
25	0xbe2197e4	-0.15780598
26	0xbd805a3a	-0.06267209
27	0xbe0b379e	-0.13595435
28	0x3e76da10	0.24106622
29	0xbd5ab7e2	-0.05339802
30	0xbe6ac8c7	-0.22928153
31	0x3f28dad8	0.6595893
32	0x3ed0342f	0.40664813
33	0xbeaf46f9	-0.34233835
34	0xbeb4ab44	-0.35286915
35	0xbe2f221f	-0.1710286
36	0xbeb33c48	-0.35006928
37	0xbeb9d616	-0.36296147
38	0xbe9e7c3b	-0.30954155
39	0xbf025111	-0.5090495
40	0xbeb41b41	-0.35177043
41	0x3ea71f41	0.32641032
42	0xbf0a1553	-0.5393879
43	0xbd483b7a	-0.048884846
44	0xbd02b91b	-0.03191481
45	0xbf2c54bb	-0.6731679
46	0xbe961e2b	-0.2931989
47	0xbea7eb88	-0.32796884
48	0xbed43cd1	-0.4145265
49	0xbe04fd1d	-0.1298718
50	0xbeeb3f12	-0.45946556
51	0x3fa75fe8	1.3076143
52	0x3dab6b77	0.08370107
53	0x3e4cbf2d	0.19994803
54	0xbea67d81	-0.32517627
55	0x3f090a3d	0.5353125
56	0xbeab05c7	-0.33402845
57	0xbe39aa5a	-0.1813139
58	0xbeb6e42a	-0.3572095
59	0xbe6ebe1c	-0.23314708
60	0xbe5b3bb9	-0.21409501
61	0xbebf9909	-0.37421444
62	0xbdcc3abb	-0.099721394
63	0xbe8a9b93	-0.2707182

fc2.weight f4 [32, 64]
0	0xbe0800aa	-0.13281503
1	0xbd9e9c26	-0.07744627
2	0xbee8b88e	-0.45453304
3	0xbed7888c	-0.42096364
4	0xbef209bd	-0.47273055
5	0x3e3cc56e	0.18434688
6	0x3d17cbc8	0.037059575
7	0xbecd8106	-0.401375
8	0xbd9d9821	-0.07695032
9	0xbb389e76	-0.0028170622
10	0xbe5234c5	-0.20527942
11	0xbe63e6b9	-0.22255982
12	0xbe4201cf	-0.18946002
13	0xbedc48d4	-0.43024313
14	0xbe85f31e	-0.26162046
15	0xbd502f8c	-0.050826594
16	0xbdfc663e	-0.12324189
17	0x3d8254a2	0.06363799
18	0x3c98786c	0.01861211
19	0xbde0a3cc	-0.10968742
20	0xbd31f9b1	-0.043451015
21	0x3e006a3e	0.12540528
22	0x3cf21797	0.029552264
23	0xbe45e4b3	-0.19325523
24	0xbd873117	-0.0660116
25	0xbdc2217e	-0.094790444
26	0x3e023e04	0.1271897
27	0x3e09ea32	0.13468245
28	0xbebf52a4	-0.37367737
29	0xbe37d902	-0.17953876
30	0xbc986c50	-0.018606335
31	0xbe29f29c	-0.16596454
32	0xbd664b07	-0.056223895
33	0xbd8a0f5c	-0.06741211
34	0xbe19f8d6	-0.1503633
35	0xbe52924f	-0.20563625
36	0xbe9f30cf	-0.31091926
37	0xbd461f9c	-0.04836999
38	0xbe3a11f6	-0.18170914
39	0xbf027af0	-0.5096884
40	0x3e267368	0.16254961
41	0x3dcae28f	0.09906494
42	0xbd8e2357	-0.06940334
43	0x3d9fe3c1	0.078071125
44	0xbaf0e244	-0.0018377979
45	0xbe39542a	-0.18098512
46	0xbdb2402e	-0.087036476
47	0xbb0a2480	-0.0021078885
48	0xbe616003	-0.22009282
49	0xbd83e702	-0.064405456
50	0xbea5be24	-0.32371628
51	0xbe806cf1	-0.25083116
52	0x3dc84557	0.097788505
53	0xbe62baf6	-0.22141632
54	0xbd83d6f7	-0.06437486
55	0xbcbc6155	-0.02299563
56	0xbd7dc3ef	-0.061954435
57	0xbd0639b8	-0.03276989
58	0xbeadab07	-0.33919546
59	0xbda8c1bc	-0.08240077
60	0xbdbaf076	-0.091278955
61	0xbe8f7062	-0.2801543
62	0x3da5539d	0.080725886
63	0xbf014fa2	-0.50512135
64	0xbddf95b6	-0.10917227
65	0xbcf37075	-0.02971671
66	0xbe861d43	-0.261942
67	0xbee2dbcb	-0.44308314
68	0xbe85cc91	-0.26132634
69	0xbde56400	-0.11200714
70	0xbdc39e9e	-0.09551738
71	0xbed9ce9d	-0.42540446
72	0xbd46df77	-0.048552956
73	0xbdb87a6a	-0.09007724
74	0xbe02e808	-0.12783825
75	0xbecc4c00	-0.39901733
76	0xbe10c6c7	-0.14138328
77	0xbe889ee8	-0.26683736
78	0xbecfea1a	-0.40608293
79	0xbca18ea0	-0.01972133
80	0xbda42672	-0.08015145
81	0xbdaabad8	-0.08336419
82	0xbdf99556	-0.12186687
83	0xbde67030	-0.11251867
84	0x3cf4cd44	0.029883035
85	0x3d7693e8	0.06019965
86	0xbd277a8a	-0.040888347
87	0xbe3b5288	-0.18293202
88	0x3d2e72be	0.042589895
89	0x3ca034b2	0.019556377
90	0xbc8d718c	-0.017266057
91	0x3d63699e	0.055520646
92	0xbefcba5e	-0.49360937
93	0x3d67374a	0.056449212
94	0xbd5efbe6	-0.054439448
95	0x3cc4d165	0.024025628
96	0x3d02c79a	0.031928636
97	0xbdd56449	-0.104195185
98	0xbd04a0f8	-0.032380074
99	0x3ce3ed35	0.02782307
100	0xbeea234b	-0.4573005
101	0xbc447890	-0.011991635
102	0xbcc51b54	-0.024060883
103	0xbe79df73	-0.24401645
104	0x3cb62ec7	0.022239102
105	0x3e0730e2	0.13202241
106	0xbc66e5b7	-0.014092854
107	0xbe2f776a	-0.17135397
108	0xbcce2a33	-0.025166607
109	0xbdd530d5	-0.104097046
110	0x3b4ba2c0	0.0031072348
111	0x3e38434d	0.17994423
112	0xbe0f2ff9	-0.13983144
113	0x3ddd158b	0.107951246
114	0xbeaf5338	-0.34243178
115	0xbed4a530	-0.41532278
116	0xbdc5f187	-0.09665208
117	0xbc9c3490	-0.019068033
118	0x3d138c80	0.036022663
119	0xbd948e66	-0.07253723
120	0xbc5aee75	-0.013362517
121	0x3d90192e	0.07036053
122	0xbeb58e29	-0.35460022
123	0xbdd2c6dd	-0.102918364
124	0xbda02963	-0.07820394
125	0xbe9ef822	-0.31048685
126	0x3d36076a	0.044440664
127	0xbe9d1b97	-0.30685112
128	0xbe2dad47	-0.16960631
129	0x3c845240	0.016152501
130	0xbd0a8e7a	-0.033827282
131	0x3dd1db82	0.10246946
132	0x3d62ec28	0.055400997
133	0xbcd990f0	-0.02655837
134	0x3cba8250	0.022767216
135	0xbd9e1ce4	-0.07720354
136	0x3d2dbbd0	0.04241544
137	0xbd9632ad	-0.073338844
138	0x3b0b944d	0.002129811
139	0xbe120bf4	-0.14262372
140	0x3c455090	0.012043133
141	0xbde225d3	-0.11042371
142	0x3b60b580	0.003428787
143	0x3aee8fb0	0.0018200781
144	0x3d774aa7	0.06037393
145	0xbdc06d9a	-0.09395905
146	0xbe2620e8	-0.1622349
147	0xbda0704a	-0.078339174
148	0xbdf1fe4d	-0.11816082
149	0xbd8eb298	-0.06967658
150	0xbdd9ad3a	-0.106287435
151	0x3cf140fc	0.029449932
152	0xbd89460a	-0.06702812
153	0xbd89a44f	-0.067207925
154	0xbe0b25b8	-0.13588607
155	0xbc7bf9c3	-0.015379372
156	0xbe0a98cd	-0.13534851
157	0x3c85d3b0	0.016336292
158	0x3dfb4b46	0.12270217
159	0x3cd54c99	0.026037501
160	0x3ce9a9f5	0.028523425
161	0x3d3ecdd6	0.04658302
162	0xbd6daa78	-0.0580239
163	0x3d4aafcb	0.049484055
164	0xbd3c6665	-0.04599609
165	0x3d87989c	0.06620905
166	0xbe079178	-0.13239086
167	0x3db6d17e	0.08926676
168	0xbdbee1e8	-0.09320432
169	0x3bc7ff24	0.006103413
170	0xbd23e600	-0.040014267
171	0xbdde1e10	-0.10845578
172	0xbd35b8e6	-0.044365786
173	0xbb90c442	-0.004417927
174	0x3dc32668	0.0952881
175	0x3d412aa0	0.04715979
176	0xbde623ea	-0.11237319
177	0xbbc1730d	-0.0059036077
178	0x3cf71b42	0.030164365
179	0xbdddffa4	-0.10839775
180	0xbdf33900	-0.11876106
181	0xbe2cff81	-0.16894342
182	0xbd17f437	-0.037098136
183	0xbe16dd50	-0.14732862
184	0xbcfae860	-0.030628383
185	0x3d1d5554	0.038411453
186	0xbd166404	-0.036716476
187	0x3ce2c000	0.027679443
188	0xbd4a3864	-0.049370185
189	0xbe2c4294	-0.16822273
190	0x3ce9df1c	0.02854877
191	0xbe31c7e7	-0.17361413
192	0xbe2b5835	-0.16732867
193	0xbc5e1eb1	-0.013557122
194	0xbde54ca1	-0.111962564
195	0xbb73df76	-0.003721205
196	0xbe9acca9	-0.30234268
197	0xbbd530a2	-0.0065060416
198	0xbc04095d	-0.008058873
199	0xbed9ef75	-0.42565504
200	0xbd90299f	-0.070391886
201	0xbde7d3c9	-0.11319692
202	0xbd981c28	-0.074272454
203	0xbe811919	-0.2521446
204	0xbea8008c	-0.32812917
205	0xbe0d1f7e	-0.13781545
206	0xbdcad734	-0.09904328
207	0xbdef3963	-0.116808675
208	0xbc8aa57d	-0.016924614
209	0x3ded7214	0.11594024
210	0x3c1622ec	0.009163599
211	0xbcd60ad0	-0.026128203
212	0xbe075e9a	-0.13219681
213	0xbe99af77	-0.30016682
214	0x3d9dc3fe	0.07703398
215	0xbd823096	-0.06356923
216	0xbd60b741	-0.054862265
217	0xbdc8b851	-0.098007806
218	0x3dbbfe11	0.09179319
219	0xbe1e5836	-0.15463337
220	0xbefdb936	-0.49555367
221	0x3c2907c2	0.010316791
222	0xbdd2461a	-0.10267277
223	0xbed0f970	-0.40815306
224	0xbe0794c0	-0.13240337
225	0x3c272789	0.010202297
226	0xbd4b9850	-0.049705803
227	0xbe00759b	-0.12544863
228	0xbe04afd5	-0.129577
229	0x3db9063a	0.09034391
230	0xbc8543bf	-0.016267655
231	0xbe843425	-0.25821033
232	0xbd41a9ac	-0.047280952
233	0xbc27eda2	-0.010249527
234	0x3d45f98d	0.048333693
235	0xbe074021	-0.13208057
236	0xbe15e982	-0.14639857
237	0x3ce565bb	0.02800261
238	0x3d6fe844	0.058571115
239	0xbd110adc	-0.035410747
240	0xbdd4649e	-0.10370754
241	0xbe13194d	-0.1436512
242	0xbe374f64	-0.17901379
243	0xbe376b59	-0.17912044
244	0x3c6fb235	0.01462989
245	0xbbded892	-0.0068007195
246	0xbbfc537f	-0.007700383
247	0x3d876c1c	0.06612417
248	0xbdc5f0aa	-0.09665044
249	0xbd4d43d4	-0.050113514
250	0xbece9c09	-0.4035342
251	0x3e2ece18	0.17070806
252	0xbcbe1318	-0.023202464
253	0xbec555da	-0.38542062
254	0xbb2bec2d	-0.00262333
255	0xbef99f84	-0.48754513

fc2.bias f4 [32]
0	0xbea1dd9d	-0.3161439
1	0xbeca7181	-0.39539722
2	0xbc5f4df6	-0.013629427
3	0xbf000cae	-0.5001935
4	0xbeb344f2	-0.3501354
5	0x3d2c9f25	0.04214396
6	0xbe989850	-0.29803705
7	0xbe29b184	-0.16571623
8	0xbe49082c	-0.19632024
9	0x3d2fa8f0	0.04288572
10	0xbe7d0439	-0.24708642
11	0xbebe192b	-0.37128577
12	0xbf89dfe6	-1.0771453
13	0xbdbef2b2	-0.09323634
14	0x3ea622d5	0.3244845
15	0x3ebfa575	0.3743092
16	0xbeb046df	-0.3442907
17	0xbd30ba8f	-0.043146666
18	0xbef978ec	-0.4872507
19	0xbe320d13	-0.173878
20	0xbeb84195	-0.35987535
21	0xbda3bbbc	-0.07994792
22	0xbe4903a2	-0.19630292
23	0xbd416b95	-0.04722174
24	0xbea767ef	-0.32696483
25	0xbeab347c	-0.3343848
26	0xbd915295	-0.070958294
27	0xbd963456	-0.07334201
28	0x3bec4780	0.007210672
29	0xbdea29a1	-0.11433721
30	0x3e63667e	0.22207066
31	0x3d69f1aa	0.057115234

fc3.weight f4 [8, 32]
0	0x3e257d02	0.16160968
1	0x3e0e1449	0.13874926
2	0xbdfb674d	-0.122755624
3	0xbe1eda4d	-0.15512963
4	0xbe04ea7f	-0.12980078
5	0x3d4ac1a3	0.049501073
6	0xbe8757f9	-0.26434305
7	0xbd9f9d91	-0.07793725
8	0xbe28404f	-0.16430782
9	0xbe289432	-0.16462782
10	0xbddee83c	-0.10884139
11	0x3dcf11b5	0.10110799
12	0xbeaf8404	-0.34280407
13	0x3bb0f591	0.0054003675
14	0xbeb60707	-0.35552236
15	0xbeef4633	-0.46733245
16	0x3c73e40c	0.014885914
17	0x3e2191c3	0.1577826
18	0xbdf7d317	-0.12100809
19	0xbe79b54c	-0.24385566
20	0x3e1bb6fd	0.15206523
21	0xbe0c1210	-0.13678765
22	0xbe0336b0	-0.1281383
23	0xbdb185b2	-0.086680785
24	0xbe442ed3	-0.19158487
25	0xbe27f170	-0.16400695
26	0xbcfaf343	-0.030633574
27	0xbdc158c7	-0.09440761
28	0xbc98e2e4	-0.018662877
29	0xbe0bd0bf	-0.13653849
30	0x3dbc01c9	0.09180028
31	0xbdf0b050	-0.11752379
32	0xbe0ee8a0	-0.13955927
33	0x3c4d1396	0.012516877
34	0x3da9e089	0.0829478
35	0xbbc67005	-0.0060558342
36	0xbd9a641f	-0.07538628
37	0x3d9a4fa3	0.07534721
38	0x3ddc39e3	0.107532285
39	0xbe1b1dd4	-0.15148097
40	0xbe0f22dd	-0.13978143
41	0xbdac7f9d	-0.08422778
42	0xbe638460	-0.22218466
43	0xbd3c1ed4	-0.045927837
44	0xbf851da6	-1.0399673
45	0x3da06203	0.07831194
46	0xbee8df71	-0.45482972
47	0x3cdedc6c	0.027204715
48	0xbe8a8728	-0.2705624
49	0xbd295824	-0.041343823
50	0x3e050097	0.12988506
51	0x3ccdf330	0.025140375
52	0xbe3df17b	-0.18549149
53	0xbed552ac	-0.41664636
54	0xbd1f516f	-0.03889602
55	0xbdb782d6	-0.08960502
56	0xbedfa67f	-0.43681714
57	0xbe1fbeb7	-0.15600096
58	0xbee62dd2	-0.44956833
59	0xbe4f34e2	-0.20235017
60	0xbd7350d4	-0.059403256
61	0xbe044665	-0.12917478
62	0x3ab3e692	0.0013725332
63	0xbe8ea016	-0.2785651
64	0x3d94a133	0.07257309
65	0xbdf7d45a	-0.1210105
66	0x3cbaa6bd	0.022784585
67	0x3e323e8a	0.1740667
68	0x3d9a6ecb	0.07540663
69	0xbe173348	-0.14765656
70	0xbdd6df2a	-0.10491784
71	0xbde74b71	-0.11293686
72	0x3c868bc7	0.016424073
73	0xbe236f29	-0.15960373
74	0xbd37a410	-0.044834197
75	0x3d6708e1	0.056404952
76	0xbd96e08d	-0.073670484
77	0x3de87870	0.11351097
78	0x3d3ab8f3	0.045586538
79	0xbdc87cac	-0.09789404
80	0x3ed4a7f2	0.41534382
81	0x3e11d94b	0.14243047
82	0x3e266943	0.16251092
83	0xbd39cc10	-0.045360625
84	0xbe02ce83	-0.1277409
85	0xbeab843b	-0.3349932
86	0x3dda8a33	0.10670891
87	0x3e24fa8e	0.16111204
88	0x3e8a5a90	0.2702222
89	0xbdd07bca	-0.10179861
90	0x3ed74fc2	0.42053038
91	0xbce213fb	-0.027597418
92	0x3d01214f	0.031525906
93	0xbdf10ffe	-0.117706284
94	0x3d892569	0.066965885
95	0xbe924024	-0.2856456
96	0x3e36eefe	0.17864606
97	0x3e47c5db	0.1950907
98	0x3c94c94b	0.01816239
99	0x3deeb3f8	0.1165542
100	0x3e399c14	0.18125945
101	0x3e1b33ad	0.15156431
102	0x3d3204e6	0.043461703
103	0x3c332aec	0.010935526
104	0xbe67c02f	-0.22631906
105	0x3d7247d3	0.05915053
106	0x3de7abe1	0.1131208
107	0xbe27410d	-0.16333409
108	0xbe3abb26	-0.18235454
109	0x3cf102ce	0.029420283
110	0xbe28f152	-0.16498306
111	0x3dcc8375	0.09986011
112	0xbc941af4	-0.018079259
113	0x3d3698a4	0.044579163
114	0x3e9c6b64	0.30550683
115	0xbecf7a3a	-0.4052294
116	0xbe8181c5	-0.2529432
117	0xbda806f9	-0.08204455
118	0x3e0a6382	0.13514522
119	0x3e1108eb	0.14163558
120	0xbe792d1d	-0.24333616
121	0x3ce3960a	0.027781505
122	0xbdb3d32d	-0.08780513
123	0xbd5bc04a	-0.053650178
124	0x3d511b40	0.05105138
125	0xbe439e54	-0.19103366
126	0x3d49642c	0.049167797
127	0xbe6a7dff	-0.22899626
128	0xbe015870	-0.12631392
129	0x3de4db3f	0.111746304
130	0x3d49a913	0.049233507
131	0xbd977403	-0.07395174
132	0xbd7fe402	-0.062473305
133	0x3d86dbb4	0.06584874
134	0x3d71463a	0.058904864
135	0xbdf9b203	-0.12192156
136	0xbdb0fe76	-0.086422846
137	0xbdaa938b	-0.08328923
138	0xbd3348dc	-0.043770656
139	0x3ef6bba1	0.48190024
140	0xbe75547b	-0.23958008
141	0x3cf6f86a	0.03014775
142	0xbedb6486	-0.4285013
143	0xbea05662	-0.31315905
144	0x3d56c292	0.05243165
145	0xbe43daa7	-0.19126378
146	0x3e010dd6	0.12602934
147	0xbe87477c	-0.26421726
148	0xbc9e5740	-0.019328713
149	0xbec1e4f1	-0.3786998
150	0xbde7fe81	-0.1132784
151	0xbdc1e84f	-0.094681375
152	0xbdf8b87d	-0.12144563
153	0x3d72d06c	0.059280798
154	0xbd84e1e3	-0.06488397
155	0x3cf07e78	0.02935718
156	0x3d473bc5	0.048640985
157	0xbd8fbb5e	-0.07018159
158	0xbdb71b3c	-0.089407414
159	0xbe143e03	-0.1447678
160	0x3e3be9d1	0.18350913
161	0xbe1909b6	-0.1494511
162	0x3d0f7b9a	0.035029985
163	0x3e2945de	0.16530558
164	0x3ceaea0e	0.02867606
165	0xbc18d3f0	-0.009327874
166	0x3e035d91	0.12828662
167	0xbd49b051	-0.049240414
168	0x3d486414	0.048923567
169	0x3bf9cfcc	0.0076236483
170	0x3dd48a8c	0.10377988
171	0x3d34fbc5	0.04418542
172	0xbde326dd	-0.11091397
173	0x3ddfaf24	0.10922077
174	0xbdc15c2b	-0.09441408
175	0xbe5bbaa4	-0.21457916
176	0xba89f458	-0.0010525091
177	0x3d5ee8cb	0.054421227
178	0xbca2f3e4	-0.019891687
179	0xbe111218	-0.14167058
180	0x3c055ebb	0.008140261
181	0xbe332574	-0.17494756
182	0xbde914a4	-0.1138089
183	0x3d525c4a	0.051357545
184	0x3c9c55df	0.019083915
185	0xbce787c6	-0.028262984
186	0xbd5acf6f	-0.05342048
187	0x3dd6d30c	0.10489473
188	0xbe153357	-0.14570366
189	0xbdcbbbac	-0.09947905
190	0x3cd7b360	0.02633065
191	0xbcf7489a	-0.030185986
192	0xbd8b478c	-0.06800756
193	0x3dda51d8	0.10660142
194	0xbd776c97	-0.060406294
195	0x3ce95c7d	0.028486485
196	0x3ce9e57d	0.028551811
197	0x3cac2e6e	0.021018233
198	0x3df15346	0.11783461
199	0xbc25b92b	-0.010114948
200	0xbcb9247f	-0.02260041
201	0xbdcb71fb	-0.099338494
202	0x3c028428	0.007966079
203	0xbdc86ab8	-0.0978598
204	0x3c6e4e5e	0.014545051
205	0xbde2d148	-0.110750735
206	0xbd0eafe0	-0.034835696
207	0xbc11b95d	-0.008894292
208	0x3cc34264	0.023835368
209	0xbd646d71	-0.055768434
210	0xbe230791	-0.15920855
211	0xbe1451fc	-0.144844
212	0x3d863ef5	0.06554977
213	0xbd5dbbbf	-0.054134127
214	0xbe09d5fe	-0.13460538
215	0x3e187956	0.14890036
216	0xbbcea327	-0.0063060704
217	0x3e280080	0.1640644
218	0xbe21f3aa	-0.15815607
219	0xbe018877	-0.12649713
220	0xbd694b4c	-0.056956574
221	0xbd1e83bf	-0.03869986
222	0x3d8a8c69	0.06765062
223	0xbd601dd1	-0.054715935
224	0xbd1b0965	-0.037850756
225	0xbd6d4499	-0.057926748
226	0x3e0d5579	0.13802136
227	0x3e47cbd6	0.19511351
228	0xb7dbd980	-2.6208116e-05
229	0xbe3ac97b	-0.18240921
230	0x3d868ca5	0.065697946
231	0xbc51780f	-0.012784972
232	0xbd23a06e	-0.03994792
233	0xbd2b7bff	-0.0418663
234	0xbdb032f0	-0.086034656
235	0xbf20ff40	-0.6288948
236	0x3d991936	0.07475512
237	0xbd8721b4	-0.06598225
238	0xbf258847	-0.6466107
239	0xbec505a4	-0.38480866
240	0x3e78fb27	0.24314557
241	0x3b907fcb	0.0044097654
242	0xbc84d0e0	-0.01621288
243	0xbe9e2e30	-0.30894613
244	0xbda82c00	-0.08211517
245	0xbedf7822	-0.43646342
246	0x3d054b55	0.032542545
247	0x3e03f8bc	0.12887853
248	0x3ded4a82	0.11586477
249	0xbd30ab17	-0.043131914
250	0xbbeb719b	-0.0071851737
251	0xbcd8cf4b	-0.026466032
252	0x3dd61746	0.10453658
253	0x3db5f48b	0.088845335
254	0xbecc2016	-0.3986823
255	0x3ec2c790	0.3804288

fc3.bias f4 [8]
0	0xbf1181ff	-0.56838983
1	0xbeb94d24	-0.36191666
2	0xbf7d9975	-0.9906228
3	0xbefb72ed	-0.4911112
4	0xbe86c174	-0.26319468
5	0xbd76f542	-0.06029249
6	0xbe98e0ed	-0.29859105
7	0xbea1354e	-0.3148598

fc4.weight f4 [3, 8]
0	0xbd13a013	-0.03604133
1	0x3eac0ce0	0.33603573
2	0xbe7cfc68	-0.2470566
3	0x3ece6c50	0.4031701
4	0xbee573d9	-0.44814947
5	0xbea535e7	-0.32267687
6	0xbd7e97bb	-0.06215642
7	0x3e922441	0.28543285
8	0xbeda7879	-0.42670038
9	0xbe95db56	-0.29268903
10	0x3e6e2c3b	0.2325906
11	0x3e52e689	0.20595755
12	0xbdb5d08a	-0.08877666
13	0x3d538fec	0.051650926
14	0xbd8c5c1a	-0.068535045
15	0xbeaf4385	-0.342312
16	0x3e7e47d0	0.24832082
17	0xbf00dee7	-0.5034012
18	0x3e4288bc	0.18997473
19	0xbe63b08f	-0.2223532
20	0x3e7986cd	0.24367829
21	0xbe825346	-0.25454158
22	0x3bfa88dc	0.0076457094
23	0xbe9b7808	-0.30365014

fc4.bias f4 [3]
0	0xc0e4d3be	-7.1508474
1	0xc132a2d2	-11.164751
2	0xc09fa37b	-4.988706
