RL_Models_Weights/DDPG_Critic_Model_Trained_Weights/critic_model_ddpg_ep0.pth (torch, 16296 bytes, 7 tensors)

fc1.weight f4 [64, 13]
-0.03748572 -0.17513998 0.02178287 0.2920171 0.26336804 0.092112914 0.20665568 -0.25109008
-0.03346251 0.10566162 -0.09698773 0.1664544 0.32515484 0.10167444 0.023153352 0.26055565
-0.037434656 0.1599318 0.22009826 -0.023938062 -0.27644184 -0.1938019 -0.14605385 -0.0033757356
-0.15410042 -0.1880426 -0.064894326 -0.2829721 -0.24920392 0.08646874 0.058677275 -0.22681656
0.11068645 -0.052375365 -0.21219166 0.18254815 0.07693676 -0.26406386 -0.2082501 0.03899388
-0.0797902 -0.052733563 -0.085062854 -0.10070601 -0.05401939 0.018642256 0.2006584 0.12238593
-0.1727593 0.19035782 -0.123968355 0.13289087 -0.25828406 -0.25857243 -0.038968667 0.15965164
0.043380868 0.111107655 0.07872847 0.037370812 0.17278685 0.20786943 0.088762 -0.27356023
-0.06975577 -0.15995285 0.041703317 0.052945927 -0.21782063 -0.21215722 0.2702789 -0.10533841
-0.20671463 0.16600388 -0.24390168 0.07932709 -0.07341323 0.08977695 0.13384281 0.095513456
-0.14790586 -0.018069942 -0.059098564 0.042075552 -0.29078007 0.13963085 -0.09852953 0.2638872
-0.23748057 -0.260058 0.035457015 0.06280161 0.08104591 0.11748248 -0.22530417 0.18340923
-0.30439037 0.048175402 0.22936192 0.14558063 0.11992911 0.13189769 0.19124155 -0.023377089
-0.17891239 0.012024028 0.019550342 0.058971763 -0.00017855455 -0.083555974 0.22747305 -0.017261578
0.19980662 0.06529434 -0.24557191 0.2283027 0.07316212 -0.2004861 0.3073799 -0.18115388
-0.22685224 0.14463297 0.0148742935 0.08013692 0.21441011 0.012473329 0.13741504 -0.10508658
0.29826003 -0.05538541 0.25927654 0.04140066 -0.17973165 -0.020915166 0.050672613 -0.2235893
0.07499036 -0.22177073 0.09073496 0.07751622 0.24289304 0.28830972 0.08357845 -0.04362496
0.1459533 0.18576577 0.2023925 -0.02700361 -0.2572959 0.013087703 0.030225333 -0.23196454
0.0102583 -0.22856498 -0.18815333 -0.28047374 -0.16556588 0.0035010763 0.04480698 -0.24543662
0.1170123 0.033517156 -0.16637105 0.25211596 -0.08984834 -0.060706735 -0.27383614 0.08669264
0.016381448 0.16996074 -0.08344072 -0.18332958 0.058866497 -0.09078024 -0.13991873 0.08149693
-0.15297821 -0.23212805 -0.2701733 -0.06338789 0.005725899 0.024146521 0.19768408 0.18031427
0.23212653 -0.0035385345 -0.16022985 -0.14710706 -0.049118597 -0.24563453 0.07328345 0.16556317
0.18134561 -0.07992596 -0.19818974 -0.12423299 0.09170204 -0.044889204 0.14136969 -0.101783514
0.01485772 -0.15005848 -0.06578947 0.095384985 -0.040328834 -0.05932766 0.11289384 -0.12852097
0.20088607 0.20754737 0.05436901 -0.14343444 -0.08401676 -0.1956464 0.21674824 0.18158853
0.041760836 -0.26687667 0.04748714 0.097403206 0.05514019 0.056576777 -0.16433178 -0.07309804
-0.2225826 0.13942786 0.2449049 -0.10110924 -0.14398597 0.06002847 0.15557745 -0.18084088
-0.13719384 0.14264369 0.07467757 0.3254331 0.11790621 -0.0054334435 0.08393006 -0.068310566
-0.076597296 0.12471796 -0.19960432 0.13364406 0.055155307 0.25223738 0.20296946 0.17614326
0.17241502 0.22282995 -0.124668 -0.028602581 0.2398956 -0.19428663 0.18232246 -0.029186072
00000000: a08a 19bd e557 33be fd71 b23c 4483 953e
00000010: 2dd8 863e b2a5 bc3d 8c9d 533e e18e 80be
00000020: fc0f 09bd 1f65 d83d 81a1 c6bd 0673 2a3e
00000030: b27a a63e b03a d03d 19ac bd3c 8d67 853e
00000040: 1555 19bd 29c5 233e 7061 613e c119 c4bc
00000050: c989 8dbe 0174 46be 248f 15be 723b 5dbb
00000060: 80cc 1dbe 3d8e 40be 51e7 84bd b8e1 90be
00000070: 502f 7fbe 8616 b13d 9557 703d 9a42 68be
00000080: 94af e23d 8d87 56bd c548 59be e7ed 3a3e
00000090: 0591 9d3d 6133 87be 843f 55be 0cb8 1f3d
000000a0: 0b69 a3bd 26ff 57bd 6f35 aebd f43e cebd
000000b0: 7043 5dbd a5b7 983c 6579 4d3e 79a5 fa3d
000000c0: d0e7 30be 29ed 423e 1fe3 fdbd 8b14 083e
000000d0: cf3d 84be 9b63 84be 9c9d 1fbd b87b 233e
000000e0: 23b0 313d 698c e33d 643c a13d 2312 193d
000000f0: 09ef 303e b9db 543e dac8 b53d 1610 8cbe
00000100: 1ddc 8ebd aeca 23be 19d1 2a3d d4dd 583d
00000110: 5f0c 5fbe be3f 59be ff61 8a3e aabb d7bd
00000120: 00ad 53be ecfc 293e 5dc1 79be 3e76 a23d
00000130: ad59 96bd fadc b73d 170e 093e 8f9c c33d
00000140: a274 17be 6a07 94bc 5611 72bd 6a57 2c3d
00000150: 20e1 94be 64fb 0e3e dac9 c9bd 391c 873e
00000160: 1b2e 73be 5226 85be 603b 113d 219e 803d
00000170: 66fb a53d a89a f03d 23b6 66be a1cf 3b3e
00000180: 0ed9 9bbe 9253 453d dadd 6a3e 1713 153e
00000190: 659d f53d 3010 073e d3d4 433e 4f81 bfbc
000001a0: cf34 37be 6e00 453c 0a28 a03c 608c 713d
000001b0: 5f3a 3bb9 651f abbd b2ee 683e 2768 8dbc
000001c0: 1b9a 4c3e 0ab9 853d 3477 7bbe 2fc8 693e
000001d0: 06d6 953d 3a4c 4dbe e660 9d3e 6780 39be
000001e0: f44b 68be aa1a 143e 4fb3 733c d31e a43d
000001f0: 538e 5b3e ef5c 4c3c 87b6 0c3e a237 d7bd
00000200: 8ab5 983e d0db 62bd e5bf 843e bd93 293d
00000210: 930b 38be 4856 abbc 168e 4f3d 98f4 64be
00000220: 8c94 993d de17 63be 40d3 b93d d3c0 9e3d
00000230: f4b8 783e 559d 933e 2e2b ab3d 16b0 32bd
00000240: c874 153e 6239 3e3e fb3f 4f3e ad36 ddbc
00000250: 4abc 83be ce6d 563c 1e9b f73c 1d88 6dbe
00000260: 6e12 283c f00c 6abe 44ab 40be 419a 8fbe
00000270: 1a8a 29be 5072 653b 8687 373d bd53 7bbe
00000280: 25a4 ef3d 4949 093d 2c5d 2abe 5815 813e
00000290: 6802 b8bd a0a7 78bd 4034 8cbe e98b b13d
000002a0: 6332 863c 300a 2e3e f8e2 aabd c0ba 3bbe
000002b0: ff1d 713d feea b9bd db46 0fbe dde7 a63d
000002c0: 52a6 1cbe fab2 6dbe 2854 8abe 83d1 81bd
000002d0: 52a0 bb3b edce c53c b26d 4a3e 4ea4 383e
000002e0: 94b2 6d3e c2e6 67bb 4b13 24be 3ca3 16be
000002f0: 9530 49bd 9e87 7bbe a215 963d 6489 293e
00000300: aab2 393e 39b0 a3bd 40f2 4abe de6d febd
00000310: 47ce bb3d bedd 37bd 37c3 103e e073 d0bd
00000320: cb6d 733c eea8 19be a1bc 86bd 3459 c33d
00000330: d92f 25bd 8f01 73bd e334 e73d 009b 03be
00000340: 14b5 4d3e 4c87 543e 0ab2 5e3d 7ae0 12be
00000350: fb10 acbd 8857 48be 40f3 5d3e 58f2 393e
00000360: 690d 2b3d 0fa4 88be e081 423d 557b c73d
00000370: aeda 613d 0dbd 673d 9746 28be 6db4 95bd
00000380: b1ec 63be 2dc6 0e3e 5ac8 7a3e 5c12 cfbd
00000390: 0f71 13be 6ae0 753d b24f 1f3e 5a2e 39be
000003a0: 8b7c 0cbe 3011 123e 8ef0 983d 2b9f a63e
000003b0: d078 f13d 070b b2bb 86e3 ab3d 69e6 8bbd
000003c0: 0bdf 9cbd 216c ff3d 1365 4cbe fdd9 083e
000003d0: 88ea 613d 4225 813e 3ad7 4f3e e65e 343e
000003e0: 908d 303e 892d 643e f051 ffbd f64f eabc
000003f0: 31a7 753e 13f3 46be bdb2 3a3e a117 efbc

fc1.bias f4 [64]
-0.0033229939 -0.14410113 -0.11573956 0.09578959 0.18342197 0.3361005 0.23175749 0.14418256
0.20717867 0.19392012 -0.112579264 -0.21938682 -0.18564181 -0.023294495 0.021043302 -0.13827251
-0.20379241 0.13290356 0.18072085 -0.12811482 0.25080162 0.15384504 -0.26488304 -0.14343204
-0.20528306 0.18732473 0.20668942 0.15721099 0.15246014 -0.07766977 0.058198433 -0.22994648
-0.13446276 -0.24888934 -0.027308056 -0.008315503 -0.16790715 -0.021256026 0.073100984 -0.24638757
0.1414165 -0.2132396 0.29562035 -0.27332094 0.117695086 0.24147144 -0.030369911 0.31428337
-0.009535946 -0.22423327 -0.18954132 0.094227955 -0.15636486 0.028553328 0.12997085 0.06835263
-0.11041121 -0.016027238 -0.15173915 0.16822025 -0.052571855 -0.2403327 -0.26258174 0.12658072
00000000: 96c6 59bb 3f8f 13be dd08 edbd 552d c43d
00000010: f8d2 3b3e 5d15 ac3e d651 6d3e 98a4 133e
00000020: a526 543e ff92 463e f58f e6bd f0a6 60be
00000030: e318 3ebe 19d4 bebc 0163 ac3c 4f97 0dbe
00000040: f5ae 50be df17 083e e30e 393e 8830 03be
00000050: 1269 803e 8e89 1d3e c09e 87be d9df 12be
00000060: b935 52be 0ed2 3f3e 64a6 533e ebfb 203e
00000070: 831e 1c3e 5411 9fbd 7b61 6e3d 1777 6bbe
00000080: 9bb0 09be d9dc 7ebe 25b5 dfbc bf3d 08bc
00000090: daef 2bbe 1e21 aebc f8b5 953d 064d 7cbe
000000a0: 7dcf 103e 7b5b 5abe 8d5b 973e b9f0 8bbe
000000b0: 1f0a f13d 4a44 773e 52ca f8bc c0e9 a03e
000000c0: a83c 1cbc 689d 65be 1f17 42be 96fa c03d
000000d0: 1c1e 20be abe8 e93c 1417 053e 77fc 8b3d
000000e0: 461f e2bd 8e4b 83bc 8261 1bbe ee41 2c3e
000000f0: 9655 57bd c619 76be 1d71 86be 609e 013e

fc2.weight f4 [32, 64]
-0.14864686 -0.055003405 -0.181212 0.17395285 0.05014301 0.15238966 -0.05728682 -0.079209566
0.019008057 -0.062838204 -0.018688552 -0.03630567 0.0631146 0.020279855 0.015967388 0.07086055
-0.14910153 0.05889763 -0.1612111 0.124555975 -0.11893926 -0.10273521 0.062756896 -0.12112684
0.015126286 0.07285019 0.015785396 0.11923884 -0.1495555 -0.07415039 -0.04883109 -0.05168452
0.0034478158 0.05941745 0.026019147 0.07154243 -0.15921134 0.044920508 -0.06763418 -0.0064571486
-0.04500808 0.022574361 -0.002919764 -0.09751244 0.082666814 0.03627351 -0.018296791 0.045869377
0.116000876 0.058173805 -0.0025715232 0.07497857 0.06307011 -0.02316224 0.02591967 -0.12303657
0.1320459 0.15609597 -0.021714479 -0.09189078 -0.052027196 0.05558786 -0.07849912 0.026153427
-0.02719611 0.06685054 0.1235441 0.110206455 0.011110902 -0.02546978 0.11214714 0.021025404
0.07148732 -0.119696215 -0.021535352 0.09549749 0.066623494 0.09234406 -0.11173223 0.011006862
-0.08297393 -0.058041647 -0.053031817 -0.12225011 0.037388742 -0.061976746 -0.06239693 0.047155693
0.016672939 0.11058594 -0.04598248 0.11300318 -0.08172585 -0.10398437 0.007963896 0.11240083
-0.001206696 0.10928643 -0.002944246 0.03175363 0.016805515 0.06719285 -0.03926809 -0.04331003
-0.10795756 -0.1069648 0.07861768 0.0012343228 0.12305398 -0.08697699 0.09846306 -0.11035806
0.032813326 0.03228414 -0.09124777 -0.0039833933 -0.033689514 -0.07734789 0.08547132 -0.12057611
-0.02571769 -0.073771 -0.029691279 0.032221377 -0.10997355 -0.07315397 -0.09761636 -0.013594449
-0.17981604 0.067388 -0.11279527 0.00752569 -0.08793422 -0.0663563 -0.17162827 0.046207104
0.017616343 -0.048583545 -0.004536214 -0.12332295 -0.11166148 0.08680932 0.03485438 -0.024107277
-0.013738796 -0.018758457 0.060300834 -0.005446896 -0.11812495 0.09557769 -0.017244207 0.062304474
-0.16051492 -0.07623288 -0.01871258 -0.0032847524 -0.17056462 -0.11016007 -0.06815261 0.06114795
-0.09387706 -0.11553283 -0.070507266 0.096941486 0.038939238 -0.05795365 -0.073798835 -0.033190902
-0.06282983 0.05346431 -0.09258333 0.08078197 -0.07754803 0.0415736 0.03662876 0.012901141
0.077058375 -0.11523025 -0.028905675 -0.1667272 -0.032504264 0.06933824 0.06792678 0.03755637
-0.15000369 -0.038094606 -0.11271517 -0.09051682 0.09921481 0.06301029 -0.049050525 -0.011114746
-0.100174226 -0.040237397 0.043760903 -0.046624906 -0.19063628 -0.15624158 -0.10625369 0.017551718
0.057248104 -0.07003492 -0.16758125 0.039766308 -0.086606994 0.063694045 -0.084664 -0.03828156
0.043529686 -0.03900952 -0.01551901 -0.017687067 0.14201885 0.030664867 -0.17211717 -0.09663627
0.0185657 0.029029604 -0.0076523665 0.07697153 -0.11258667 -0.04708163 -0.067523 -0.037068825
0.022508562 0.069932505 0.043915153 0.09331946 -0.03188654 -0.06420125 -0.070708126 -0.10232845
-0.02364225 -0.021388583 -0.021293817 0.09479809 -0.0933229 -0.009126678 -0.14870372 -0.032484084
0.11720066 0.11166847 -0.060355067 -0.17222832 -0.1526877 -0.037974987 -0.058495566 0.04715956
-0.16167657 -0.1545178 0.011785299 0.08477874 0.01227513 -0.027840083 -0.012674063 -0.016033053
00000000: e236 18be 404b 61bd a38f 39be b220 323e
00000010: c262 4d3d 090c 1c3e 96a5 6abd a038 a2bd
00000020: c9b6 9b3c 51b1 80bd bc18 99bc 41b5 14bd
00000030: 3a42 813d f021 a63c 0ace 823c 561f 913d
00000040: 12ae 18be a43e 713d 8614 25be 3417 ff3d
00000050: 6d96 f3bd d666 d2bd b086 803d 5911 f8bd
00000060: 3ed4 773c 7b32 953d 6050 813c 7e33 f43d
00000070: 1425 19be 29dc 97bd 1c03 48bd 26b3 53bd
00000080: c0f4 613b b65f 733d 1b26 d53c d684 923d
00000090: 4c08 23be 91fe 373d ca83 8abd 7d96 d3bb
000000a0: 645a 38bd deed b83c 8359 3fbb 9ab4 c7bd
000000b0: 384d a93d 8893 143d 27e3 95bc 87e1 3b3d
000000c0: de91 ed3d a847 6e3d 0087 28bb 5d8e 993d
000000d0: e72a 813d bdbe bdbc 7d55 d43c 99fa fbbd
000000e0: 0a37 073e 9fd7 1f3e 90e2 b1bc 3c31 bcbd
000000f0: 781a 55bd 19b0 633d 26c4 a0bd b63f d63c
00000100: 60ca debc f0e8 883d b004 fd3d ecb3 e13d
00000110: 800a 363c 00a6 d0bc 66ad e53d 783d ac3c
00000120: f267 923d 4a23 f5bd e86a b0bc 3094 c33d
00000130: e671 883d e21e bd3d ded3 e4bd 2056 343c
00000140: 3cee a9bd 14bd 6dbd e437 59bd 445e fabd
00000150: f024 193d 54db 7dbd ec93 7fbd 5426 413d
00000160: b095 883c e27a e23d 2058 3cbd 366e e73d
00000170: e25f a7bd c2f5 d4bd 007b 023c 6832 e63d
00000180: 002a 9eba 90d1 df3d 40f4 40bb 1810 023d
00000190: b8ab 893c 689c 893d 94d7 20bd dc65 31bd
000001a0: da18 ddbd 5c10 dbbd 4e02 a13d 00c9 a13a
000001b0: ba03 fc3d fe20 b2bd 00a7 c93d 6803 e2bd
000001c0: 4467 063d 603c 043d 1ce0 babd 2087 82bb
000001d0: 04fe 09bd 9268 9ebd 960b af3d 9cf0 f6bd
000001e0: e8ad d2bc 4015 97bd 203b f3bc 90fa 033d
000001f0: d039 e1bd c0d1 95bd 16eb c7bd 40bb 5ebc
00000200: b221 38be b802 8a3d 3501 e7bd 109a f63b
00000210: db16 b4bd d0e5 87bd 52bf 2fbe a943 3d3d
00000220: 2650 903c 8aff 46bd 85a4 94bb be90 fcbd
00000230: c6ae e4bd 16c9 b13d 77c3 0e3d a07c c5bc
00000240: b018 61bc 56ab 99bc 02fe 763d e07b b2bb
00000250: 7eeb f1bd 3cbe c33d b943 8dbc fa32 7f3d
00000260: 065e 24be fc1f 9cbd 204b 99bc 0045 57bb
00000270: 7ea8 2ebe 9a9b e1bd 9893 8bbd 4676 7a3d
00000280: 9e42 c0bd 7a9c ecbd 1d66 90bd 4289 c63d
00000290: c07e 1f3d ce60 6dbd d823 97bd 2ff3 07bd
000002a0: edac 80bd 64fd 5a3d 549c bdbd 0471 a53d
000002b0: 80d1 9ebd 1449 2a3d 0a08 163d 4f5f 533c
000002c0: c8d0 9d3d d6fd ebbd 98cb ecbc 89ba 2abe
000002d0: 3123 05bd 3501 8e3d 321d 8b3d b5d4 193d
000002e0: 919a 19be 1709 1cbd 36d7 e6bd e260 b9bd
000002f0: 2231 cb3d 8a0b 813d 34e9 48bd a01a 36bc
00000300: 2528 cdbd f8cf 24bd a23e 333d c2f9 3ebd
00000310: 2836 43be cbfd 1fbe 899b d9bd 9fc8 8f3c
00000320: fd7c 6a3d 786e 8fbd 6b9a 2bbe ffe1 223d
00000330: 025f b1bd 0672 823d 5264 adbd 20cd 1cbd
00000340: 2f4c 323d 72c8 1fbd 7243 7ebc 78e4 90bc
00000350: 646d 113e e334 fb3c 7c3f 30be 3de9 c5bd
00000360: 1817 983c 7ecf ed3c b4c0 fabb 40a3 9d3d
00000370: d793 e6bd abd8 40bd 8049 8abd 7bd5 17bd
00000380: e063 b83c c638 8f3d 60e0 333d 461e bf3d
00000390: 769b 02bd f27b 83bd 6ccf 90bd 9491 d1bd
000003a0: 64ad c1bc 1c37 afbc 5f70 aebc 8025 c23d
000003b0: 1420 bfbd 1088 15bc ca45 18be 080e 05bd
000003c0: e606 f03d 70b2 e43d e036 77bd 9f5c 30be
000003d0: 2a5a 1cbe a98b 1bbd 0c99 6fbd 622a 413d
000003e0: 8b8e 25be ea39 1ebe 2017 413c 7aa0 ad3d
000003f0: a01d 493c e310 e4bc e0a6 4fbc c057 83bc

fc2.bias f4 [32]
0.026867986 0.123375684 -0.11422204 -0.0024253814 0.0965032 -0.015392977 -0.15516801 0.12329888
-0.062249146 -0.06486711 -0.072418064 -0.10508567 -0.07103284 0.17659052 0.016469937 0.15571867
0.09973677 0.05239509 -0.09070541 0.066977076 0.063578956 0.01903907 -0.058706522 -0.05027251
0.11146006 0.017860476 -0.0018889983 -0.019285709 -0.101257995 -0.11445956 -0.0868733 0.048599746
00000000: 401a dc3c 64ac fc3d 3fed e9bd 26f3 1ebb
00000010: 78a3 c53d d332 7cbc 5de4 1ebe 2084 fc3d
00000020: f6f8 7ebd 0cd9 84bd ec4f 94bd 2837 d7bd
00000030: aa79 91bd 25d4 343e f6eb 863c b774 1f3e
00000040: cb42 cc3d 3c9c 563d c2c3 b9bd 472b 893d
00000050: af35 823d d3f7 9b3c 4076 70bd 8cea 4dbd
00000060: 2c45 e43d 2250 923c 4498 f7ba 10fd 9dbc
00000070: 5a60 cfbd c669 eabd a1ea b1bd 8710 473d

fc3.weight f4 [8, 32]
-0.072759956 -0.09226006 -0.09486678 -0.10381435 -0.17511356 0.0582547 0.0818748 -0.043797422
0.08578546 0.10848944 -0.06985345 0.10903836 0.053418834 -0.07893209 -0.059020508 -0.11102749
0.06098375 -0.048189484 -0.021343375 -0.09535663 -0.112546094 -0.14667065 0.047469847 -0.16380659
-0.14233777 -0.16890393 0.0850959 0.06406719 0.08063116 -0.0906655 -0.15699507 0.009712784
-0.1822108 0.09327306 -0.20230772 -0.030669069 -0.059744526 -0.08222098 -0.079386316 -0.08936523
0.0831254 -0.040334765 0.072376125 0.072496496 -0.051232822 -0.1885239 -0.09448987 0.0856508
-0.044777624 0.095870465 -0.1024828 0.08706957 0.13695936 -0.08396108 -0.15092622 -0.0831503
-0.004322815 -0.18278581 -0.029358633 -0.07100682 0.16199104 0.14058939 0.116985135 -0.08685378
0.021003632 0.089301 -0.16081005 0.04949521 0.055611312 0.051075805 -0.10256712 0.03193452
-0.01466575 0.024791809 0.052085306 0.09973618 -0.05587098 0.079135954 -0.091570534 0.01070598
-0.13437575 0.11941702 -0.0050956593 -0.20955305 -0.15416567 -0.12740135 0.07509719 0.1150811
-0.06971973 0.12069353 -0.07637606 0.075928494 0.17657346 0.071455576 -0.14219852 -0.065295875
0.09358665 0.13677791 0.0057767616 -0.05889456 0.09991631 0.1367761 0.15261 -0.061368506
0.037146598 0.1295465 -0.13045895 -0.084122814 0.06326676 -0.20933999 -0.06435274 -0.10385372
-0.1350941 0.027886944 0.063208535 -0.13803658 -0.15803087 0.13107435 -0.15154709 0.17235772
-0.0072851456 -0.13226391 0.1675558 -0.08199406 -0.081811816 -0.17575718 0.08567981 0.032168772
-0.16615807 0.026372295 -0.03623415 0.09439604 0.13660616 -0.14967483 0.13217281 0.03830177
-0.023083976 -0.15054412 0.16121157 0.06283943 0.13260727 -0.1394084 0.16222993 -0.05261115
0.09183735 -0.06029842 0.07565888 -0.122708865 -0.022564158 0.0402597 -0.11436037 -0.124877505
0.03021931 -0.0016320102 0.06981227 0.005134245 0.04832465 -0.024498045 -0.10377201 0.10752546
-0.08712246 -0.06125094 0.15671411 -0.03976221 -0.095374145 -0.01923003 -0.11704694 -0.108567186
-0.10455875 -0.07137868 -0.11094037 0.124740064 0.16415057 -0.22966291 -0.084476285 -0.16530658
0.09859136 -0.16430116 0.06901685 0.09438212 -0.032332625 -0.099905886 0.15321119 -0.14862074
-0.09798946 0.03974364 0.05490686 -0.10705072 0.08989735 -0.16134898 -0.10491063 0.07457249
-0.10427067 -0.11710413 0.11357075 0.006510613 0.021478329 0.11136822 -0.13552894 -0.068201944
-0.07607517 0.1543967 0.15547468 -0.053020354 0.1055737 -0.15353924 -0.17091401 -0.022674013
-0.1625792 -0.1104409 0.14281318 0.11615071 -0.09693497 -0.024715291 0.11566543 0.07762158
0.13189422 0.06013506 -0.10544039 0.134034 -0.023573913 0.10817033 -0.088709444 -0.15428182
0.08937723 0.10010557 0.11717181 -0.05768419 0.010562822 0.041628145 0.026078187 0.114418976
-0.10981524 0.14921887 -0.13972251 -0.07968776 -0.13813436 0.038422324 0.100857705 0.017425328
0.035108544 0.010570686 0.096167766 -0.026521087 0.16354746 -0.15411274 0.05493768 0.05284829
-0.13386235 0.04212631 -0.075765215 -0.16430964 -0.09747308 -0.15877356 -0.059188623 0.04188436
00000000: 2c03 95bd d8f2 bcbd 8449 c2bd 9e9c d4bd
00000010: f850 33be 7b9c 6e3d faad a73d ed64 33bd
00000020: 4ab0 af3d b62f de3d 530f 8fbd 814f df3d
00000030: b5cd 5a3d 26a7 a1bd 7dbf 71bd 6162 e3bd
00000040: 19ca 793d 5662 45bd 4dd8 aebc 564a c3bd
00000050: 917e e6bd d530 16be be6f 423d eabc 27be
00000060: fec0 11be 27f5 2cbe c246 ae3d a935 833d
00000070: f321 a53d d5ae b9bd 51c3 20be 5e22 1f3c
00000080: 7895 3abe f205 bf3d c129 4fbe b33d fbbc
00000090: adb6 74bd 7963 a8bd 4b95 a2bd 1e05 b7bd
000000a0: a63d aa3d 1136 25bd ef39 943d 0b79 943d
000000b0: 82d9 51bd 690c 41be e883 c1bd b069 af3d
000000c0: be68 37bd bc57 c43d 81e2 d1bd 8851 b23d
000000d0: 133f 0c3e c9f3 abbd 678c 1abe b44a aabd
000000e0: 67a6 8dbb 342c 3bbe 8481 f0bc 066c 91bd
000000f0: fbe0 253e aaf6 0f3e e795 ef3d 65e0 b1bd
00000100: cf0f ac3c 71e3 b63d 64ab 24be 7dbb 4a3d
00000110: b0c8 633d dd34 513d b60e d2bd c5cd 023d
00000120: 9d48 70bc 3118 cb3c 6757 553d 7b42 cc3d
00000130: f8d8 64bd 0812 a23d 5589 bbbd 2268 2f3c
00000140: cc99 09be e990 f43d 7df9 a6bb 1395 56be
00000150: 9bdd 1dbe 8075 02be 8ecc 993d a4af eb3d
00000160: 38c9 8ebd 2b2e f73d 0d6b 9cbd 6680 9b3d
00000170: accf 343e 4d57 923d 7d9c 11be d8b9 85bd
00000180: 5caa bf3d 820f 0c3e fd4a bd3b 6c3b 71bd
00000190: eca0 cc3d 090f 0c3e cc45 1c3e 8b5d 7bbd
000001a0: 0827 183d d6a7 043e 0897 05be 9548 acbd
000001b0: 0192 813d 395d 56be 5fcb 83bd 42b1 d4bd
000001c0: 1c56 0abe 2973 e43c 7a73 813d 7659 0dbe
000001d0: d8d2 21be 5b38 063e 292f 1bbe 8b7e 303e
000001e0: 3bb8 eebb 3170 07be bf93 2b3e 80ec a7bd
000001f0: f48c a7bd b1f9 33be e578 af3d 67c3 033d
00000200: 5725 2abe b60a d83c 436a 14bd b652 c13d
00000210: 7ce2 0b3e 5c44 19be 4f58 073e 51e2 1c3d
00000220: 9b1a bdbc 3d28 1abe a514 253e f6b1 803d
00000230: 33ca 073e 13c1 0ebe 9a1f 263e ca7e 57bd
00000240: 3815 bc3d 7afb 76bd 0bf3 9a3d c94e fbbd
00000250: 78d8 b8bc 5be7 243d c535 eabd c7bf ffbd
00000260: 7d8e f73c 2de9 d5ba bcf9 8e3d 2b3d a83b
00000270: 11f0 453d 20b0 c8bc 6b86 d4bd 4f36 dc3d
00000280: 436d b2bd 44e2 7abd aa79 203e b3dd 22bd
00000290: 8553 c3bd 4c88 9dbc 4eb6 efbd 7958 debd
000002a0: e622 d6bd fc2e 92bd b434 e3bd b877 ff3d
000002b0: 1617 283e c12c 6bbe e701 adbd 2146 29be
000002c0: 44ea c93d 903e 28be b558 8d3d 6a4b c13d
000002d0: 376f 04bd 759b ccbd 65e3 1c3e 0930 18be
000002e0: b3ae c8bd 3aca 223d 04e6 603d 683d dbbd
000002f0: 1a1c b83d ab38 25be 62db d6bd 76b9 983d
00000300: dc8b d5bd 4ad4 efbd c897 e83d fb56 d53b
00000310: 52f3 af3c 0515 e43d 19c8 0abe 76ad 8bbd
00000320: 4ccd 9bbd 2b1a 1e3e c134 1f3e df2b 59bd
00000330: 0637 d83d 6439 1dbe 1504 2fbe dabe b9bc
00000340: 297b 26be d72e e2bd 9e3d 123e 6ce0 ed3d
00000350: d785 c6bd b977 cabc ffe1 ec3d 10f8 9e3d
00000360: 470f 073e 2e50 763d 22f1 d7bd 3540 093e
00000370: 141e c1bc 6888 dd3d 4cad b5bd 0efc 1dbe
00000380: 690b b73d 2604 cd3d c6f7 ef3d 4246 6cbd
00000390: b00f 2d3c 4682 2a3d eca1 d53c 7f54 ea3d
000003a0: d0e6 e0bd d5cc 183e 6b13 0fbe 5633 a3bd
000003b0: 1873 0dbe ba60 1d3d 7c8e ce3d 90bf 8e3c
000003c0: facd 0f3d ac30 2d3c 9bf3 c43d c042 d9bc
000003d0: fc78 273e bbcf 1dbe 5506 613d 7377 583d
000003e0: 3613 09be a38c 2c3d cb2a 9bbd c940 28be
000003f0: f79f c7bd 8995 22be c56f 72bd ef8e 2b3d

fc3.bias f4 [8]
0.11658486 -0.14377378 -0.17564236 -0.076550625 -0.10592799 0.011049306 -0.10619933 -0.21094169
00000000: 0bc4 ee3d 6f39 13be 97db 33be 93c6 9cbd
00000010: c6f0 d8bd 2608 353c 097f d9bd 1901 58be

fc4.weight f4 [1, 8]
0.08100574 -0.073274925 -0.006671885 0.037474178 0.09779835 -0.052684043 -0.18598796 -0.103285536
00000000: 56e6 a53d 2a11 96bd d49f dabb 867e 193d
00000010: 804a c83d 39cb 57bd a173 3ebe 5e87 d3bd
